task_2/ensemble_model_C_simple_gcn.pth (torch, 38608 bytes, 6 tensors)

conv1.bias f4 [64]
000000 07 64 e2 3c 64 6d 6f bd 9f 01 a5 3b 47 58 d0 3c
       0.027635587 -0.058453932 0.0050355936 0.025432719
000010 cf 14 d0 3c e4 42 f0 3d c7 34 01 3e 9f 96 e2 3b
       0.025400547 0.117315084 0.12617789 0.006914928
000020 c0 f0 d7 3a bd 6b b3 3d 7c e5 46 3c ce a8 a9 3d
       0.0016474947 0.08760784 0.012139674 0.0828415
000030 11 6e 83 3d 91 15 e7 3c 86 5d ad 3d d1 d3 cc bd
       0.06417478 0.028208526 0.08465104 -0.10001338
000040 32 a7 1e 3d 1b 25 54 bc ea e2 1b bd 79 a5 c4 3d
       0.03873367 -0.0129483 -0.0380582 0.09601874
000050 c7 53 e7 bc f2 44 94 3d e4 e0 db 3d cb 8c 92 3b
       -0.02823819 0.07239713 0.10736254 0.0044723502
000060 f5 05 28 3d 4c 4c 79 bd 02 54 8d 3d 90 e4 71 bd
       0.041021306 -0.060863778 0.06900789 -0.059055865
000070 52 af 5d bd ec c1 a6 bc 60 3a 68 bd e1 3d f2 bc
       -0.054122277 -0.020356141 -0.056696296 -0.029570522
000080 34 44 f2 3d 24 d6 14 3a 8b 07 3f bd a7 c3 3d 3d
       0.11829415 0.00056776614 -0.046638053 0.046329167
000090 00 33 e5 3b db bf c7 3d c5 df bf 3c ef 72 7b 3d
       0.006994605 0.097533904 0.023422131 0.061388906
0000a0 be 3f d6 3d d7 62 fb 3c b3 f2 d7 3d 4b d6 49 3d
       0.104613766 0.030686779 0.10544338 0.04927663
0000b0 a0 e3 b9 3a 90 15 ee 3d 8e bb 40 bd 49 e0 d9 3d
       0.0014182217 0.116252065 -0.047053866 0.10638482
0000c0 63 2f 9b 3c 0e 06 ad 3d 7f ac 15 bd 71 0a 1c bc
       0.018943494 0.084484205 -0.03654146 -0.009523974
0000d0 66 da ce 3c a6 ed 84 3d d3 5f 33 3d 87 5e 1d be
       0.025250625 0.0649064 0.043792557 -0.1536809
0000e0 63 f5 6b 3c dc be 52 bd 02 c8 c6 3d dc 50 9a 3c
       0.0144017665 -0.05145155 0.09706117 0.018837385
0000f0 e5 0e a7 bd 15 a2 08 3d 36 53 9b 3d ee 47 7e 3d
       -0.08157138 0.0333577 0.075842306 0.062080316

conv1.lin.weight f4 [64, 66]
000000 b3 7e c0 bc 69 2a be 3e a1 67 95 3f bf 53 0d bc
       -0.023497915 0.3714173 1.167225 -0.008625924
000010 92 ef 8b 3e 7d b1 59 be a5 52 13 3e 2f 96 a0 bd
       0.27331215 -0.21259113 0.14386995 -0.07841145
000020 ea c2 a5 3d 5f c4 08 bf ea cd 50 bd a0 03 07 3d
       0.080938175 -0.5342464 -0.050977625 0.03296244
000030 0c 90 54 bf 3c 07 ac 3d cb ec 87 bd 30 c5 eb 3a
       -0.830323 0.08399817 -0.066369615 0.0017987844
000040 04 d5 43 be 4c d8 c6 be c7 4a 29 be 6f b3 82 3e
       -0.19124228 -0.38836896 -0.16532432 0.25527522
000050 eb 97 4d be b7 8c 33 3e 15 d1 5a 3e 88 03 31 3e
       -0.20077483 0.17534147 0.21368821 0.17286503
000060 9a 27 01 3e 70 2a 1f bc 66 32 30 be 49 9d 26 3e
       0.12612763 -0.009714708 -0.17206725 0.16270937
000070 67 8d 0e 3e 0d f3 eb 3d bb 32 f9 be c1 2d d7 bc
       0.13921128 0.11520968 -0.48671517 -0.026266934
000080 1e e5 b4 be 90 68 b1 39 61 0f ad bc 69 97 7d 3e
       -0.35331053 0.00033837976 -0.021125497 0.2476479
000090 2d e2 8a 3e 05 41 b3 3d c2 1f 44 3e e1 63 1e 3e
       0.27125683 0.08752636 0.1915274 0.15467788
0000a0 97 85 18 bf c8 9b 86 be 9a 29 a0 bc 72 cc a4 3d
       -0.5957884 -0.26290727 -0.019551087 0.08046807
0000b0 77 fe 03 3e e2 0f 79 3e 02 a9 cb bd d0 d9 65 be
       0.1289004 0.24322465 -0.09944345 -0.2244637
0000c0 79 f9 00 bd d7 03 09 3e 51 54 60 be 06 56 60 3e
       -0.031487916 0.13380371 -0.21907164 0.21907815
0000d0 04 a6 9f bd a3 a9 8d be 44 95 64 be 63 35 00 be
       -0.07795337 -0.27668485 -0.22322565 -0.12520365
0000e0 da 63 1b bf c9 3a ad be 1b ae b3 3c d8 0c da bd
       -0.60699236 -0.33833912 0.021933606 -0.10646981
0000f0 ca cd 29 bd a7 d8 41 be d6 f1 0e 3f cc d8 0e 3d
       -0.04145602 -0.18930303 0.5583776 0.034874722
000100 5f cf 81 3e 1f d0 a8 bc ef fc d1 be 74 11 9b 3e
       0.25353524 -0.020607052 -0.41013286 0.30286753
000110 06 68 bb 3e 1b e7 b9 3e 06 74 7c be c0 53 90 be
       0.366028 0.36309132 -0.24653634 -0.28188896
000120 8c ba 2b 3e 76 5f 1c 3d b7 66 41 be 41 26 31 be
       0.1677038 0.038176976 -0.18886839 -0.17299749
000130 6c b7 7f be a6 b4 98 3e 97 37 10 3f 46 f6 0a 3d
       -0.24972314 0.29825324 0.56334823 0.03392627
000140 62 6a 1b 3e 91 87 9b be 36 97 29 be 12 f3 36 3d
       0.151773 -0.30376866 -0.16561589 0.044665404
000150 e8 e5 b0 be 7b 9b 4d be 92 b5 5c bd ff e2 dc bd
       -0.34550405 -0.20078842 -0.053884096 -0.107854836
000160 8a ab 1f 3e 34 e6 c2 bc 70 5d 1b be 19 1c 76 be
       0.1559278 -0.02379141 -0.15172362 -0.24034156
000170 d8 17 9a bb b0 85 34 3e 1b 18 11 3e 00 04 ee bb
       -0.0047025494 0.17629123 0.14169352 -0.0072636604
000180 c1 cc 60 be da 77 bc be 34 e7 bf be bd f6 8b bd
       -0.21953107 -0.3681019 -0.3748108 -0.06834171
000190 c9 5f 48 3d 7d a1 04 be c0 b4 99 be 64 63 68 be
       0.048919473 -0.12952228 -0.30020714 -0.22694165
0001a0 6e 6c fc 3e 03 51 f1 be 43 a8 3f be 76 5a 64 be
       0.49301475 -0.4713212 -0.1871653 -0.22300133
0001b0 26 4f a1 3e 93 9c 97 3d 62 72 40 bd 85 cf 95 3d
       0.31505698 0.07402911 -0.046984084 0.07314972
0001c0 0a d6 f8 bd 72 84 2b be 8b 32 d2 3e 44 53 52 bc
       -0.121502 -0.16749743 0.41054186 -0.012837235
0001d0 bb 13 10 be 35 be c8 3e 4a e2 6e 3e a8 28 35 be
       -0.14070027 0.39207616 0.2332851 -0.1769129
0001e0 ed 43 e9 bc da 99 e7 be 34 d9 a4 be a0 16 81 bd
       -0.028474772 -0.45234567 -0.32196963 -0.063031435
0001f0 76 3a ae 3c 5d 4e 04 bd ab ad fa 3e cf 2e 77 3e
       0.02126811 -0.032301296 0.48960623 0.2413895
000200 37 c2 47 be a5 89 0b be 19 81 44 be 1c ca b7 b9
       -0.19507681 -0.13626726 -0.19189872 -0.00035055063
000210 68 8d 4c be cc d7 bf bd dd de 59 3f 47 d6 83 3e
       -0.19975817 -0.09367332 0.8510569 0.25749418
000220 0f 0a 03 be 94 ee 64 be a0 96 75 3d ec 09 4f 3e
       -0.12796806 -0.22356635 0.0599581 0.20218629
000230 4d 72 78 bb 5f 54 9e 3d 35 f4 91 bd a3 3f 88 3e
       -0.0037909925 0.07730936 -0.07126657 0.2661105
000240 79 d9 44 3f 21 0c 0a 3d ed 62 0e 3f 12 b2 90 be
       0.76894337 0.033702973 0.556197 -0.28260857
000250 fc 1c 2f bd db 6e a5 be b6 f6 fc be 8c b9 8d 3e
       -0.04275225 -0.3231114 -0.49406976 0.27680624
000260 85 de 91 bd cf e7 44 3d 8b c8 be bd 18 d3 0a bd
       -0.0712252 0.048072632 -0.09315594 -0.03389272
000270 72 c2 a6 3e b5 69 54 be cb 83 29 3e 3b 58 44 3e
       0.32570225 -0.20743449 0.16554181 0.19174282
000280 ec 24 d6 3d b3 ca 91 3e 78 14 ce bd 78 25 99 be
       0.10456261 0.2847496 -0.10062498 -0.299114
000290 39 92 37 bf 7a 1e c4 b9 68 da 3c be c7 76 e9 3c
       -0.71707493 -0.0003740674 -0.1844269 0.02849902
0002a0 31 b6 8c be c4 3f 8f be ee 35 25 3f 2e 09 9e be
       -0.2748275 -0.27978337 0.64535415 -0.3086638
0002b0 c0 95 9f 3b 48 6e 46 be 55 25 4a 3e 91 c2 e9 3d
       0.0048701465 -0.19378006 0.19740804 0.11414064
0002c0 7a 52 31 3e e0 df 2c bd ec c5 0a bd 22 f6 07 be
       0.17316619 -0.04220569 -0.03388016 -0.13277486
0002d0 12 1d ad bd 34 43 c1 3e 52 ce a6 3d 5d 56 09 3f
       -0.0845281 0.37746584 0.08144821 0.53647405
0002e0 91 d7 6a 3e da d7 84 be 1d 9a 51 be e7 68 4a bf
       0.22933795 -0.25945932 -0.20468946 -0.7906632
0002f0 94 b2 10 bf 23 8a 4d be 9b 64 01 3d 67 e1 8f be
       -0.5652249 -0.20072226 0.031590085 -0.28101656
000300 95 71 cb 3e 1d bf 0a bd e7 80 2e 3f 00 a2 20 be
       0.39735094 -0.033873666 0.6816544 -0.15686798
000310 5c 90 39 3e 1c e7 c7 bd b4 68 9d be 6b 3d 3d be
       0.18121475 -0.097608775 -0.30743945 -0.1848046
000320 ec ff 8e 3e 33 10 90 3e ab 05 2b 3e ad ef 9f be
       0.27929628 0.2813736 0.16701381 -0.31237546
000330 35 3b 82 3e 2e 54 59 be 0a 86 31 bd 20 cc 9c be
       0.25435796 -0.21223518 -0.04334072 -0.30624485
000340 28 f0 93 3e 81 46 f5 3d b0 67 21 bf f0 53 bd bd
       0.28894162 0.11976338 -0.6304884 -0.092445254
000350 4e df 3b 3d 8d 2f 24 be 75 01 92 3b ca 62 25 3f
       0.045867257 -0.16033764 0.00445574 0.64603865
000360 bd 80 2a 3e c3 39 84 3e b9 d5 d8 bd ca 4d 92 3e
       0.16650672 0.2582532 -0.10587639 0.28574973
000370 c0 cd ef bd 09 2e 08 3e 78 ff cd bc fa 00 ac 3e
       -0.117091656 0.13298811 -0.025146231 0.33594495
000380 90 cc 83 3e 04 51 7b be c0 bc 06 be b4 a5 18 bd
       0.25742006 -0.24542624 -0.1315794 -0.0372674
000390 48 f4 8e 3d a0 f1 31 be 62 5a 1d 3f f7 2c 00 be
       0.06980187 -0.17377329 0.6146604 -0.12517153
0003a0 b2 03 17 3e e5 61 96 3e f7 0b 62 3e d7 27 08 3e
       0.14747503 0.29371563 0.22074877 0.13296448
0003b0 7b 92 9d 3e e3 d7 4e 3e 49 e0 67 bf ab b6 ee be
       0.30775818 0.20199542 -0.90576607 -0.4662374
0003c0 02 b4 a5 3e 49 7c 84 bd 23 ad 84 3e 83 f8 f3 3e
       0.32363898 -0.06469018 0.25913343 0.47650537
0003d0 08 c9 8a 3c b4 b6 f8 3d fd 3d ab 3e b4 03 9b be
       0.016941562 0.12144223 0.3344573 -0.30276263
0003e0 84 f6 32 bf c7 0a 1e be 68 65 ad 3e d8 f4 6a 3e
       -0.69907403 -0.15433799 0.3386643 0.22944963
0003f0 d4 67 43 be 33 c3 8c 3f e0 93 ef be 8f 3c c7 be
       -0.19082576 1.099707 -0.46792507 -0.3891339

conv2.bias f4 [64]
000000 c9 98 2c bc e5 4c e7 3c 3d cd 7e bd d2 c7 90 3d
       -0.010534474 0.028234908 -0.06220745 0.07069363
000010 bf 75 ce 3c 15 0a af 3b 3f 0c 41 3c 1d 7d 69 bd
       0.02520263 0.005341778 0.011782705 -0.057004083
000020 32 d2 9a 3d 55 3f 0b 3e 57 b1 53 3d 8c 7c 99 3d
       0.07559623 0.13598378 0.051682796 0.074944586
000030 df 0f 8c 3d 31 47 b2 3c 23 27 3b 3d 73 b8 87 3c
       0.06838965 0.021762462 0.04569162 0.016567444
000040 6b a5 06 3c 59 4b bb bd 3d aa c7 3c 0b e7 8d 3c
       0.00821815 -0.09145231 0.024373168 0.017322084
000050 fd b8 6f 3a 91 ba ea bc d3 6d 04 3d af 00 70 3d
       0.0009144692 -0.028653415 0.0323313 0.058594402
000060 14 23 13 3d 34 3e 75 bd dc ee b0 3c a6 d9 1e be
       0.035922125 -0.059873775 0.021598272 -0.15512714
000070 78 99 ed 3b 2d c0 95 3d 6f 48 34 bd 6a 8a 99 bd
       0.007250961 0.07312045 -0.04401439 -0.074971035
000080 2d 41 d5 3c f6 a2 a3 3c e7 76 34 3c fe 08 5b 3c
       0.026032055 0.019975167 0.011014677 0.013368843
000090 e7 2b 3d 3d 4f 6a 47 3d 8a bd e9 3c 29 b8 b4 3c
       0.046184447 0.04868537 0.028532762 0.02206047
0000a0 c6 7e 8d 3c 0b 8d 04 3d 3a 3d 1c bd 2f ee 6b 3c
       0.017272364 0.03236107 -0.038144328 0.014400049
0000b0 1a da 73 3c 18 89 1e 3d c0 84 8f be 28 0a 15 bc
       0.014883542 0.03870496 -0.28030968 -0.00909666
0000c0 0f 4b c0 bc fe bc 26 bc b6 ad 9c bb 6b ac dc 3d
       -0.02347329 -0.010176895 -0.00478145 0.107750736
0000d0 e9 fd a8 bc c3 a0 43 3b 7e 6f c7 3c f7 bf 30 bc
       -0.020628886 0.002985046 0.024345156 -0.0107879555
0000e0 a3 ad 0b bc 3d 3e e3 bd 31 64 2b 3d ea f0 e7 3c
       -0.008525285 -0.110958554 0.041843597 0.028313119
0000f0 48 51 3f ba 1a 1c bd bd d2 9b 5d 3d e8 0e 22 3b
       -0.00072981836 -0.092338756 0.05410368 0.0024728123

conv2.lin.weight f4 [64, 64]
000000 71 7f 86 be 62 7f 76 3d 63 0b 84 be a2 5c e2 3c
       -0.26269105 0.060180075 -0.25789937 0.027632061
000010 10 3f 39 bd 13 06 3b be 8e af 31 3e b2 ad 8b bd
       -0.045226157 -0.18264036 0.17352125 -0.06820239
000020 1b e4 87 3e 03 88 a4 be 00 a3 b1 3e 94 23 3b 3f
       0.26541218 -0.3213502 0.34694672 0.7310116
000030 12 f2 fe bd 6c 65 76 be 24 0e 51 3d 8c 58 17 3d
       -0.12448515 -0.24062127 0.051038876 0.03694968
000040 fa 26 66 bd 61 c8 d5 3c 44 a4 88 3e 91 79 4e be
       -0.056189515 0.026096525 0.26687825 -0.20163561
000050 42 ab 1a 3e 66 c2 bb be 48 6d f2 3e 9b b3 5d be
       0.15104392 -0.36671752 0.47349 -0.21650545
000060 ee 8d 28 3e 31 eb c2 3d d2 b6 64 be 51 ad 9b 3e
       0.16460392 0.095175155 -0.22335365 0.30405667
000070 85 7d df 3c 4b fb 4a 3e 88 03 f8 3d bc 75 2c be
       0.027281532 0.19822423 0.121100485 -0.16841787
000080 01 2b 62 3e e5 a0 04 3e da e4 03 3e 97 04 c7 3d
       0.22086717 0.12952001 0.12880269 0.09717672
000090 37 0d 5b bc 16 46 21 bd 34 da 35 bd d2 67 4f 3e
       -0.01336985 -0.03937348 -0.044397548 0.20254448
0000a0 22 37 96 3e ff 9f 98 3e 65 d6 ad 3e ab d0 98 be
       0.29338938 0.29809567 0.33952633 -0.298467
0000b0 d9 c7 65 3e f5 dd 6e be 8f 2c 1d be 5b 0e 8d be
       0.22439517 -0.23326857 -0.15349029 -0.27550015
0000c0 6a fc 04 be 25 f9 9a bd 2c 58 82 3e 08 c5 d9 bc
       -0.12986913 -0.07567052 0.25457895 -0.02658321
0000d0 9a 6e a9 bd b7 70 5f be 15 c7 65 3d 69 d3 34 be
       -0.08273049 -0.21820341 0.056098063 -0.17658772
0000e0 3d b1 a8 3e ab 36 16 be d3 22 3d 3d 94 09 ae be
       0.32947722 -0.14669292 0.04617579 -0.33991683
0000f0 e0 9d 51 3e 0e 36 5f bd 7b 19 fc bb c4 ee 9e 3e
       0.20470381 -0.05449491 -0.007693467 0.3104154
000100 22 db a3 3d 3b 24 97 3d 8f 06 8d be c6 19 e5 3e
       0.08000781 0.07379957 -0.27544066 0.44746226
000110 56 b5 5f 3c 35 a6 99 3b b0 5b b4 3d c1 8b 24 3e
       0.013654074 0.004689003 0.088065505 0.16068937
000120 d9 bf b3 3d 22 b1 e6 bd ca f0 8b 3e 1c 11 b0 3e
       0.087768264 -0.11264254 0.27332145 0.34388053
000130 dc 83 64 be c2 d7 6d be 27 8b c1 be e0 e4 99 bc
       -0.22315925 -0.23226836 -0.37801477 -0.018785894
000140 dd 70 7e be d8 f1 88 be 6f c5 8c 3e bb 9b 88 be
       -0.24847741 -0.26747012 0.2749438 -0.26681313
000150 2a cc 4a 3c e3 33 02 bd 41 7d ae 3d e0 17 1d 3e
       0.012377778 -0.031787764 0.08519984 0.15341139
000160 16 76 42 3e ee e3 c1 bd a3 be 6a be e6 8f dd 3d
       0.18990359 -0.09467302 -0.22924285 0.10818462
000170 ec a2 9c 3e f3 99 8f bd 1c a7 17 be 37 27 23 be
       0.3059305 -0.07011785 -0.14809841 -0.15932928
000180 33 1c 3f be 76 06 b7 3e 39 a4 05 3e 4f d5 c9 3c
       -0.18663101 0.35747117 0.13050927 0.024637846
000190 e8 a6 a5 3e c4 4e ed bd aa f0 f5 3d 30 29 6c 3e
       0.32353902 -0.11587289 0.12008794 0.23062587
0001a0 1c 30 c6 3e 26 a3 1c bc 8b 8a d1 3d 15 a1 e4 be
       0.3870858 -0.009560382 0.10231503 -0.44654146
0001b0 de 19 48 bd 89 2d 32 be 86 a9 8a 3e 64 35 9b be
       -0.048852794 -0.17400183 0.2708246 -0.3031417
0001c0 de 21 66 be 54 82 a1 3e 6b 6a ae bd f6 6a d2 3d
       -0.22473857 0.31544745 -0.08516391 0.102743074
0001d0 21 8c 55 be 63 24 a6 bd 94 04 d5 3e 51 e5 10 3e
       -0.20854236 -0.08112409 0.41605055 0.14149977
0001e0 79 d7 e4 3b ed 26 28 3e 64 12 e7 bd fc 50 5e be
       0.006983694 0.16421099 -0.112828046 -0.2171058
0001f0 28 43 94 3e 66 0d 6e be aa f7 da 3e 19 dc 16 3f
       0.28957486 -0.23247299 0.42767078 0.5892959
000200 71 cb 35 3d 43 fb 24 3e 9f 44 dd bd 03 11 35 bb
       0.04438347 0.16111474 -0.10804104 -0.0027628548
000210 f2 3b 34 be 17 b0 a3 be fb bf 23 3e 8e 90 f4 3d
       -0.17600992 -0.31970283 0.15991203 0.11941634
000220 92 e0 c1 3d ef d0 01 be fd 76 af bc 41 91 8f 3e
       0.094666615 -0.12677358 -0.021419043 0.28040507
000230 ee 75 f8 bd 18 3b cd be e1 0a 11 3d 0a a3 69 3e
       -0.12131868 -0.40084147 0.035410766 0.228161
000240 5b e2 e2 3d 19 55 93 be a1 55 9e 3e 58 08 a2 3d
       0.1107833 -0.28775862 0.30924705 0.07911748
000250 17 23 7e 3e d9 4a 62 be b7 74 aa 3e 0e 11 92 bd
       0.24818073 -0.22098865 0.3329217 -0.07132159
000260 0a 67 8d bd 31 91 ba bb df a6 09 be 10 f7 b2 3d
       -0.06904419 -0.0056935777 -0.13442563 0.0873853
000270 08 e7 1c 3d 22 e7 7a 3e 3d 13 c2 bd 8b d1 3d 3c
       0.038306266 0.24502233 -0.09476326 0.0115856035
000280 39 c3 cc 3b b8 51 a7 3e 6d 7e 1e be ff 08 d2 bb
       0.0062488583 0.32679534 -0.15477915 -0.006409764
000290 44 b3 5c bd 13 e7 9e be a2 39 2e 3e eb b1 5e 3e
       -0.0538819 -0.3103567 0.17014173 0.21747558
0002a0 d2 99 32 3c a9 93 b4 3e 05 1a ee 3d 72 3f b6 be
       0.010900931 0.35268906 0.116260566 -0.3559528
0002b0 54 4a ac 3d bc b4 d0 be b1 f9 15 3e 0e bb 8f be
       0.084126145 -0.4076289 0.14646031 -0.280724
0002c0 8f 28 47 3e 37 4b 8b be 53 2e 2c 3e d8 39 0e 3e
       0.19449066 -0.27205822 0.16814546 0.13889253
0002d0 97 30 fc bd b3 0e 8a be 4c ed 9a 3e 1a 00 f3 3d
       -0.12313955 -0.2696434 0.30259168 0.11865254
0002e0 1f cf ce 3d c8 47 1e 3d e3 b1 46 be e3 3b 38 bd
       0.10098099 0.038642675 -0.19403796 -0.044978987
0002f0 ed 4f 01 3b ee 1f 9e be 3e c6 1d bd 96 8f 2b 3e
       0.0019731477 -0.30883735 -0.038519137 0.16753992
000300 88 2f 3e 3d 29 b5 e8 3e 5a 3e 16 3f 73 57 db 3c
       0.046432048 0.45450714 0.5868889 0.026775097
000310 12 e0 ab 3d f9 4c 7c 3c 5f 23 79 3e f4 ad a0 3e
       0.083923474 0.015399211 0.24329899 0.31382716
000320 a6 c2 bd 3d 16 7f bc bc 29 1f 47 be a6 78 c6 be
       0.09265642 -0.023009818 -0.1944548 -0.38763922
000330 fe 1c d3 3e 19 17 9e bc 34 74 f5 bb 85 38 cb bd
       0.41233057 -0.019298123 -0.007490659 -0.099228896
000340 e0 91 19 3e 0a e0 ca 3e 5f 36 d7 bc 81 d8 2b bf
       0.14997053 0.39624053 -0.026271043 -0.67127234
000350 a7 22 fb 3d d1 c5 1d 3e f6 58 33 3e 55 63 04 be
       0.12262469 0.15407492 0.17514405 -0.12928517
000360 88 6b bd be f4 6b 44 3d c5 fd a3 3e 49 d2 95 3d
       -0.36996102 0.047954515 0.32029548 0.07315499
000370 15 23 bf bc 5f d9 9a 3e c5 b4 5b 3e 81 3e 20 3e
       -0.023332158 0.30243966 0.21455677 0.15648843
000380 ec 96 9c bd 61 96 4a bd 74 1f c6 3e 9c de 4d 3d
       -0.076459736 -0.04945982 0.38695872 0.050261125
000390 b8 a6 6a bc e5 5e 82 3e 99 bf 8e be f4 2f 9a be
       -0.014321975 0.25463024 -0.27880552 -0.3011471
0003a0 f9 a6 ad 3e 1c cf 86 3e 6b 07 11 bd ca e4 30 3e
       0.33916453 0.26329887 -0.035407465 0.17274776
0003b0 b6 86 ba 3e 5f 38 52 3c 40 82 82 3e 95 d8 07 3f
       0.364309 0.012830823 0.25489998 0.5306485
0003c0 fe 89 2a bd 71 b0 97 3d d1 3b 04 be d0 c6 5c bd
       -0.041635506 0.074067004 -0.12913443 -0.05390054
0003d0 6c 94 2a 3e 00 a6 86 3d 8c 62 f1 3d ee 81 d6 3c
       0.16658181 0.06574631 0.117863744 0.026185002
0003e0 ab 4a 54 3e 0a c2 a2 3e 87 a4 b5 3e ea 51 58 3e
       0.20731609 0.31788665 0.35477087 0.21124998
0003f0 67 e9 96 bd 33 d5 a1 3e 07 cf c2 be 96 53 bc be
       -0.07368737 0.3160797 -0.38048574 -0.3678252

linear.weight f4 [7, 64]
000000 0f ff c1 be 70 9b da be 02 11 43 be f2 dd 70 bf
       -0.37889907 -0.42696714 -0.19049457 -0.9408866
000010 da 86 03 bd b1 a7 6c bd 02 96 c2 3d 2a 79 49 be
       -0.032111026 -0.05777711 0.09501268 -0.19675127
000020 eb 35 75 3d 05 a3 c5 3e bb ba a3 bd 10 b3 37 be
       0.059865873 0.38600937 -0.079946004 -0.179394
000030 97 07 db 3e 7f a7 88 be c5 a6 c4 3e d5 df da 3e
       0.42779228 -0.2669029 0.38408485 0.42748895
000040 35 4f 32 be 7a 98 04 bf 8d 13 e3 be 03 62 9b bd
       -0.17413028 -0.5179516 -0.44350854 -0.075870536
000050 b8 39 a5 3e 2c 92 85 3e 44 70 99 bd ac eb 00 3e
       0.32270598 0.26088083 -0.07492116 0.12589902
000060 6a e0 0c bf 76 0a 49 bf 64 d2 a9 3e d6 6d 6b be
       -0.5502993 -0.7853159 0.33168328 -0.22991118
000070 6f 7d 17 bf 0d 08 78 3e 3d e4 74 3e 5e 5d 69 bf
       -0.5917577 0.24221821 0.23915191 -0.9115809
000080 67 f8 35 3f 2a 7f 53 bf a5 51 f7 bc 7b 77 86 3b
       0.71082157 -0.8261591 -0.030190298 0.0041035987
000090 8e 42 b7 bd 91 06 7d 3e 53 38 8f be 69 f6 68 3e
       -0.08948241 0.24709536 -0.2797266 0.22750248
0000a0 67 e3 b9 bd 5b 83 79 bf 7c 1e 3a 3e 8b 3b b5 be
       -0.09076577 -0.9746606 0.18175691 -0.3539699
0000b0 49 9f 64 bf 04 e9 96 be 55 38 8d be b1 af 9a be
       -0.8930555 -0.29474652 -0.2758204 -0.30212167
0000c0 b1 8d 1e be 17 fd 0d bf 15 ee 7f c0 fe 15 db 3e
       -0.15483738 -0.5546431 -3.9989064 0.42790216
0000d0 43 d9 83 bc 69 5f 62 bf e1 ef a7 be fe 6f 12 bf
       -0.01609481 -0.88426834 -0.328002 -0.57202137
0000e0 30 e9 85 be f7 7a 3a bf 84 0d 5f 3e 52 02 24 3d
       -0.2615447 -0.7284388 0.217825 0.040041275
0000f0 dc ca 2a be ec 4d 62 be 6e 46 4c 3e c2 10 ff 3d
       -0.16678947 -0.22100037 0.19948742 0.12454368
000100 dc e4 cc be c4 e4 51 bd 7a 90 34 be 12 b6 67 bf
       -0.40018356 -0.05124356 -0.17633238 -0.9051219
000110 f8 5a 83 3e 74 d2 83 be 05 92 d4 3d 60 14 63 be
       0.2565534 -0.257465 0.103794135 -0.22175741
000120 98 99 0c 3e 20 e8 2c 3e 97 0d 0d bf 80 ec 34 bf
       0.13730466 0.16885424 -0.5509886 -0.7067337
000130 aa 2d b9 3d f0 bd 1c be 8f 82 03 3e 54 b8 c5 3d
       0.09041913 -0.1530683 0.12842773 0.096542984
000140 fe 12 10 bf 02 8b 16 bf 8c e5 8e 3d bb 6d f7 3c
       -0.5627898 -0.5880586 0.06977376 0.03020369
000150 14 6b c0 bd f7 94 c3 3b 29 f1 d5 be c1 11 ee be
       -0.093954235 0.0059686857 -0.41785553 -0.4649792
000160 ad 7c 94 3d 0d 2d 3b 3b 51 a3 c9 3e d6 66 32 be
       0.072503425 0.0028560788 0.39382413 -0.17422041
000170 20 76 10 be 7e d7 93 be 53 e5 8c 3e 10 6c 83 3f
       -0.14107561 -0.28875345 0.2751871 1.0267353
000180 21 af 95 bd 4b ad b8 bf b9 08 64 be 3d a3 86 be
       -0.07308794 -1.4427885 -0.22268952 -0.26296416
000190 82 1f 65 bd 46 3b 25 bf 58 ac 95 be a7 84 9b bd
       -0.05593825 -0.6454357 -0.2923305 -0.07593661
0001a0 c0 cc 00 3f 64 9f bb bf 7c a4 78 bd 19 f7 ec be
       0.50312424 -1.4658017 -0.06070374 -0.4628227
0001b0 e2 02 f2 be c0 0c f8 3e d0 e6 e7 3d 25 ea fa bd
       -0.47267824 0.48447227 0.11323321 -0.12251691
0001c0 04 82 8d bd 17 f6 9f bf 73 f7 99 bf a4 cd 2b bf
       -0.06909564 -1.2496976 -1.202864 -0.6711066
0001d0 c7 dd 0d be 41 6e 2c 3f 10 80 a6 3e c7 4b d0 bd
       -0.13854133 0.67355734 0.3251958 -0.101707034
0001e0 95 a5 84 be 9f 21 ef bd e7 74 39 3d 71 b3 ba be
       -0.2590758 -0.116763346 0.045277502 -0.36465028
0001f0 f2 42 38 be a9 56 7d bd 56 fc 44 be f4 d0 ae be
       -0.17994288 -0.061850224 -0.19236884 -0.34143794
000200 71 d2 c6 bd 89 df 80 be 40 d5 fa 3c 1b 0f 28 3e
       -0.09708107 -0.25170544 0.030619264 0.16412012
000210 54 88 6c 3d 04 81 60 3e 2e e6 c8 be 20 3e 51 bb
       0.0577472 0.21924216 -0.39238113 -0.0031927899
000220 e0 28 20 3e f0 f3 88 3e 06 51 fb 3d 33 45 41 3e
       0.15640593 0.2674861 0.12271313 0.18874054
000230 b3 83 ca 3b 38 6c 19 3e f2 49 41 3d de fe 70 be
       0.0061802506 0.14982688 0.04718966 -0.23534724
000240 a3 a8 62 3c a4 95 15 3e f7 1d 62 3e 2e 5d b8 be
       0.013834151 0.14607865 0.22081743 -0.3600859
000250 ce 2d 81 be cc d0 6d be 53 7b 2c bc 95 f1 26 3e
       -0.2523026 -0.23224181 -0.01052745 0.16303094
000260 c6 7b 5c be 44 80 9c 3d e3 d7 0c be 2f 93 73 3e
       -0.21531591 0.07641652 -0.13754229 0.23786615
000270 4d 4b 86 be 45 b1 30 3e 48 14 36 bf d4 a5 21 be
       -0.26229325 0.17255123 -0.71124697 -0.15785915
000280 36 5b 01 be 4c 43 a4 bc 76 49 16 3e a2 58 82 3e
       -0.1263245 -0.02005162 0.1467646 0.25458246
000290 4a 39 ca 3d ce 5a bf 3d fa 9a 2e be 7a 6e 68 3e
       0.09874208 0.093434915 -0.17051306 0.22698393
0002a0 f5 1a 1b bd 18 60 92 be 15 2c 25 3d 85 1d db bd
       -0.037867505 -0.2858894 0.040325243 -0.1069899
0002b0 55 e6 ba 3d c2 ae cd be bf b7 38 3e ed 4e 85 be
       0.091259636 -0.40172392 0.18038844 -0.26036778
0002c0 45 a4 5e be a2 bb 34 be 06 17 1e bf ab f8 4c 3e
       -0.21742351 -0.17649701 -0.6175388 0.20016734
0002d0 d6 58 88 bd a5 6e 1c be 68 2e ac be 7c 8a 0e be
       -0.06657569 -0.15276583 -0.33629155 -0.13920015
0002e0 e1 d8 7b 3b 9e 04 9a 3d d3 15 aa be e7 7a 2e 3e
       0.003842883 0.07520412 -0.33219776 0.17039071
0002f0 f8 20 3a be b0 27 93 3c ad 52 2b 3e 6a 18 d9 3c
       -0.18176639 0.01796326 0.16730757 0.0265009
000300 e3 57 c1 bd e4 cb 6c be be 8c d0 bd 25 f9 3f 3e
       -0.09440591 -0.23124653 -0.101830944 0.18747385
000310 28 f3 5d be 51 f4 5c bd b2 ed 92 3e a2 69 14 3e
       -0.21674788 -0.053943936 0.28696972 0.1449342
000320 df 40 b4 be 97 82 b6 be 20 4c df bd 60 53 4e 3e
       -0.35205743 -0.35646507 -0.109031916 0.20148993
000330 8c 82 a9 be ee 4e 45 bd 25 70 ae be 7a 9b a7 be
       -0.33107412 -0.048170976 -0.34069934 -0.32735807
000340 f7 0a 7c 3e 09 cb 1a 3e 11 06 94 3d e1 7e 90 3e
       0.24613558 0.15116514 0.072277196 0.282218
000350 b7 62 b2 be 31 04 ec 3d ee c5 0f 3e 13 1b ac bd
       -0.34840938 0.11524237 0.14040348 -0.084036015
000360 c1 38 9f be ee ec 3f be 60 e4 98 be 18 15 83 be
       -0.31097987 -0.18742725 -0.29861736 -0.2560203
000370 98 39 bc be b5 a2 3d 3e 8d e3 ed 3d 9a 90 19 be
       -0.3676269 0.18519099 0.116156675 -0.14996567
000380 8b ea e2 bd aa 60 03 3e 08 8a 98 3c eb 51 a1 3d
       -0.11079892 0.12829843 0.018620506 0.07876953
000390 e1 5e a9 bd cb 8a 75 3d 11 44 87 3e 41 a8 ad bc
       -0.0827005 0.059946816 0.26419118 -0.021198394
0003a0 a3 cd a3 be bd 63 da 3d 03 9e 7b bd a3 92 85 3d
       -0.31992826 0.10663555 -0.06142999 0.06522109
0003b0 08 68 6a bd 93 ac a2 3d d1 67 9a bd b3 c9 79 3e
       -0.05722812 0.07943072 -0.07539333 0.24393348
0003c0 9e 02 92 bc 5a ff be 3c b6 55 1d 3f 29 cd c9 3d
       -0.017823514 0.02331512 0.6145891 0.09853584
0003d0 cb 0a e9 3d a0 c0 6e be 54 9e 02 3e 57 bf 3c 3e
       0.11379012 -0.23315668 0.1275571 0.18432365
0003e0 fe c3 28 3e 91 43 4d be a9 6b 9d be 1c 51 58 3e
       0.16481015 -0.20045306 -0.307462 0.21124691
0003f0 b4 aa c8 bd 68 b0 81 3d 02 71 53 be ad 8a 85 3e
       -0.09798184 0.06332475 -0.20648578 0.26082364

linear.bias f4 [7]
000000 70 9e 9f 3b fb 40 20 bd 8b d3 16 3d 63 8c 92 3d
       0.004871182 -0.03912447 0.036822837 0.07155683
000010 7d 6b ba bd 99 e1 3c be 8e 2d 81 3d
       -0.09102533 -0.18445434 0.06307517
