task_2/ensemble_model_B_fixed_gat.pth (torch, 409346 bytes, 14 tensors)

conv1.att_src f4 [1, 4, 64]
0	0x3e7ac097	0.2448753
1	0x3e48b794	0.1960128
2	0xbe40784e	-0.18795893
3	0x3eade0f1	0.3396068
4	0x3e8e347c	0.27774417
5	0xbe6d09bb	-0.23148243
6	0xbe5bea53	-0.21476106
7	0xbdf204b9	-0.11817307
8	0xbc964707	-0.018344415
9	0x3ddc5af7	0.10759538
10	0xbd25c573	-0.040471505
11	0xbdd1977d	-0.10233972
12	0xbe9e760e	-0.30949444
13	0x3ce96aa3	0.028493231
14	0xbd3a6053	-0.04550202
15	0x3daae76a	0.0834492
16	0x3e764807	0.24050914
17	0x3c88ce6e	0.016699996
18	0x3d91a0c1	0.071107395
19	0xbe29b050	-0.16571164
20	0x3e6f6106	0.23376855
21	0x3dc4ddef	0.09612643
22	0xbd9b4770	-0.07581985
23	0x3dd605f7	0.104503565
24	0x3e08329a	0.13300553
25	0x3e82125c	0.25404632
26	0xbdb84e9e	-0.0899937
27	0x3e197e79	0.14989652
28	0xbe073217	-0.13202702
29	0xbeac6ef3	-0.33678398
30	0x3ea01e37	0.31273052
31	0xbe7fb7e7	-0.24972497
32	0x3e222f77	0.15838419
33	0xbe7f2a27	-0.24918424
34	0x3eb04b02	0.34432226
35	0xbd6dcc6e	-0.058056287
36	0xbcaa5bbd	-0.020795697
37	0x3d1c694c	0.038186356
38	0x3e8ef0ba	0.27918035
39	0x3e4edc23	0.20201163
40	0xbe227e8f	-0.15868591
41	0x3e9d1414	0.3067938
42	0x3da982ad	0.082768776
43	0xbe5d473c	-0.21609205
44	0x3e17d4e6	0.14827308
45	0xbe456c3a	-0.19279566
46	0xbd713fc6	-0.05889871
47	0xbbd700ec	-0.006561389
48	0xbe700154	-0.23438007
49	0xbe831e83	-0.25609216
50	0x3e6c9bc5	0.23106296
51	0xbd3445ec	-0.044011995
52	0xbdbde3a0	-0.09271932
53	0xbdd0b891	-0.10191453
54	0x3e04a6d8	0.12954271
55	0xbd8991a9	-0.067172356
56	0xbe3afe53	-0.1826108
57	0x3d5fdaa6	0.05465188
58	0xbe048620	-0.1294179
59	0xbe7a2071	-0.24426438
60	0xbdbe43dc	-0.09290287
61	0xbe64a81e	-0.22329757
62	0xbece5c5f	-0.4030485
63	0x3d30220b	0.043001216
64	0x3e746576	0.2386683
65	0x3dd3f2b2	0.10349025
66	0xbe702da8	-0.23454916
67	0x3ddd3c0c	0.10802469
68	0x3d76fd93	0.06030042
69	0xbe4349d7	-0.19071136
70	0x3e816d82	0.2527886
71	0x3deafe98	0.11474341
72	0x3cb22832	0.021747682
73	0xbd7ce8e5	-0.061745543
74	0x3ef6502a	0.48108035
75	0xbdc4458f	-0.0958358
76	0xbe494eb1	-0.19658925
77	0xbe0bca20	-0.13651323
78	0xbed78ef3	-0.4210125
79	0xbdeaf45f	-0.11472391
80	0x3e2d7b7e	0.1694164
81	0xbdfe03cb	-0.12403067
82	0x3e48d3ad	0.19611998
83	0x3dda2ece	0.106534585
84	0xbde572c1	-0.11203528
85	0x3db12711	0.086500295
86	0x3e76919e	0.24078986
87	0xbdca0ad4	-0.098653466
88	0x3e016eec	0.1263997
89	0x3e8ed81a	0.27899247
90	0x3e61c0b5	0.22046168
91	0x3ca7af7d	0.020469422
92	0x3c91a842	0.017780427
93	0xbe987251	-0.29774716
94	0xbec91ab9	-0.392782
95	0x3d176bdb	0.036968093
96	0x3ee5ffc4	0.44921696
97	0xbea49e2d	-0.3215193
98	0x3e4aa037	0.1978768
99	0x3e6898cf	0.22714542
100	0xbd5ce8c4	-0.05393292
101	0x3e461108	0.19342434
102	0xbd5f0355	-0.054446537
103	0xbbaa163c	-0.005190639
104	0xbe1ddbcb	-0.15415876
105	0x3e201f4f	0.15636943
106	0x3e913709	0.283623
107	0xbd57fa61	-0.052729014
108	0xbe321554	-0.17390949
109	0x3e0dcbff	0.1384735
110	0x3e8e9854	0.27850592
111	0x3dc764cf	0.097360246
112	0x3dde4047	0.10852104
113	0x3e6c2ec0	0.23064709
114	0x3eee0f28	0.46495938
115	0x3e48f3ac	0.19624203
116	0x3e5bd46e	0.21467754
117	0x3ea53693	0.322682
118	0x3e06061a	0.13088265
119	0x3eb37be2	0.35055453
120	0x3e805469	0.250644
121	0xbd88ab6a	-0.0667332
122	0xbf258f4e	-0.6467179
123	0xbe9be705	-0.3044969
124	0x3e384db4	0.17998391
125	0x3ed1e635	0.40995947
126	0x3e811f81	0.25219348
127	0x3e67665c	0.22597641
128	0xbe550e2f	-0.20806192
129	0x3bdd7c28	0.0067591853
130	0xbd06751c	-0.032826528
131	0xbe0a0446	-0.13478193
132	0x3f128c8f	0.57245725
133	0x3dfc4622	0.12318064
134	0x3efe9918	0.49726176
135	0x3dfb469c	0.12269327
136	0x3e9d708f	0.30749938
137	0xbe9ac23f	-0.30226323
138	0xbe41aa8e	-0.18912718
139	0x3ecd9266	0.40150756
140	0x3e3be793	0.18350057
141	0x3e48a14d	0.19592781
142	0xbef005e3	-0.4687949
143	0x3ee3ab8e	0.44466823
144	0x3e49e5bf	0.19716547
145	0x3ef5136b	0.47866377
146	0x3d8d871c	0.06910536
147	0x3ee3c492	0.4448591
148	0xbcdd0ef2	-0.026984666
149	0xbdf289d7	-0.11842697
150	0xbe206b19	-0.15665855
151	0xbbaba21e	-0.0052378317
152	0xbee615e9	-0.4493859
153	0x3ea30bd3	0.3184496
154	0x3d8fb0cd	0.07016144
155	0x3eabb9d0	0.335402
156	0x3db21904	0.086961776
157	0x3da40de7	0.08010464
158	0x3eccdc47	0.40011808
159	0x3e713c84	0.23558241
160	0xbe78fc5b	-0.24315016
161	0xbe6bcf67	-0.23028336
162	0x3e1b6cf0	0.15178275
163	0x3c338e11	0.010959164
164	0x3ed66e89	0.41881207
165	0xbcbc3f9f	-0.022979556
166	0xbe87ca5e	-0.2652158
167	0xbe3d5200	-0.18488312
168	0x3ea8c305	0.32961288
169	0xbe80116b	-0.2501329
170	0xbc5c5c71	-0.013449774
171	0xbf0b2d34	-0.5436585
172	0x3ec7ae7a	0.39000303
173	0xbd6583fb	-0.05603407
174	0x3de80baa	0.1133035
175	0xbdd5e455	-0.104439415
176	0xbddb8ec1	-0.107205875
177	0xbcbb0f8d	-0.022834564
178	0x3e916851	0.283999
179	0x3eb2acbb	0.34897408
180	0xbd253ef7	-0.04034325
181	0x3d177a46	0.036981843
182	0x3e14e0cb	0.14538877
183	0x3f24207b	0.6411206
184	0x3e7cc742	0.24685386
185	0x3e267b95	0.1625808
186	0x3ec05bf3	0.37570152
187	0x3e2f40e1	0.17114593
188	0x3eb1bd6e	0.34714836
189	0x3d2238a7	0.03960481
190	0x3d95623b	0.072941266
191	0x3f18368a	0.5945822
192	0x3e300f46	0.17193326
193	0xbeaa734c	-0.3329109
194	0xbe5b1c59	-0.21397533
195	0xbc4c222d	-0.01245932
196	0x3e49e4e3	0.1971622
197	0x3ea22486	0.3166849
198	0x3e3685fb	0.17824547
199	0xbec2215a	-0.3791607
200	0x3e39877f	0.18118094
201	0xbe082e7f	-0.13298987
202	0x3f0ef885	0.5584796
203	0xbf05cc2e	-0.5226468
204	0x3ea11739	0.3146303
205	0x3e951b9e	0.29122633
206	0x3e42ff99	0.19042815
207	0x3d1d23dd	0.03836428
208	0xbe2b27b3	-0.16714363
209	0x3ddf7bdf	0.109122984
210	0xbd92c294	-0.07166019
211	0x3e9f2e6c	0.31090105
212	0x3e3858b5	0.18002589
213	0x3e9dc514	0.3081442
214	0x3e8d32b3	0.27577743
215	0xbebe5616	-0.37175053
216	0xbeb88dc4	-0.3604566
217	0xbed1ab20	-0.4095087
218	0xbe9c738e	-0.3055691
219	0xbd9158ef	-0.07097041
220	0x3f060dd0	0.52364826
221	0x3d62ada6	0.055341385
222	0x3e239957	0.15976463
223	0xbe8df252	-0.27723938
224	0x3eedf27e	0.4647407
225	0xbe4e861f	-0.2016835
226	0x3e0719cd	0.13193436
227	0xbe6be3a4	-0.23036057
228	0xbe87a603	-0.26493844
229	0x3dd18596	0.102305576
230	0x3eb2268c	0.34795034
231	0xbe11d380	-0.14240837
232	0x3ec6bb96	0.38814992
233	0xbd8110a1	-0.06302
234	0xbe357098	-0.17718732
235	0x3de72579	0.11286444
236	0x3ea34b0b	0.3189319
237	0xbeae6877	-0.34064075
238	0xbe606bea	-0.21916166
239	0xbede42ca	-0.4341033
240	0x3e48056e	0.19533321
241	0x3ea87d5a	0.32908136
242	0x3e48f322	0.19623998
243	0xbe822689	-0.25420025
244	0x3d9e814c	0.07739505
245	0xbdffab31	-0.12483824
246	0x3e2f8f4f	0.17144512
247	0xbe8a0168	-0.26954198
248	0xbe8efcdd	-0.27927294
249	0xbdf70107	-0.12060743
250	0xbe9881e2	-0.29786593
251	0xbdcea7b5	-0.10090581
252	0x3c0e48c4	0.008684341
253	0x3e75d4b9	0.24006929
254	0x3e5965b0	0.21230197
255	0x3e73c276	0.2380465

conv1.att_dst f4 [1, 4, 64]
0	0xbdce853c	-0.10084006
1	0x3e984839	0.29742602
2	0xbeb9fa6d	-0.36323872
3	0xbc80db5c	-0.015729599
4	0xbdf598a4	-0.119920045
5	0x3d33e94d	0.043923665
6	0x3e0a7016	0.1351932
7	0xbe977da6	-0.2958805
8	0xbea670ec	-0.32508028
9	0x3eb9ed81	0.36314014
10	0xbd9c6297	-0.07635992
11	0x3d0128d8	0.031533092
12	0x3dbb9e8b	0.09161099
13	0x3ebf7266	0.37391967
14	0xbdc267d5	-0.09492461
15	0xbe92d62e	-0.2867903
16	0x3e6fc1fa	0.2341384
17	0xbe333214	-0.17499572
18	0xbec2f81f	-0.38079926
19	0x3d9ef101	0.077608116
20	0x3e82caae	0.25545257
21	0x3e01e5da	0.12685338
22	0xbd4b6360	-0.04965532
23	0xbe3254b0	-0.17415118
24	0xbe790b84	-0.24320799
25	0xbdde50a0	-0.10855222
26	0x3e8b675f	0.27227303
27	0xbd860f8c	-0.06545934
28	0x3d60476e	0.05475562
29	0xbc71f665	-0.014768218
30	0x3d79df97	0.061004248
31	0xbd7750b5	-0.060379703
32	0x3d8ed37a	0.0697393
33	0xbe9e6853	-0.30938968
34	0x3e529afd	0.20566936
35	0x3e104ef2	0.14092615
36	0x3d50679d	0.050880063
37	0xbd7a9c9d	-0.061184514
38	0xbcc23d25	-0.023710797
39	0xbe8dcca8	-0.27695203
40	0x3cdeb5b3	0.02718625
41	0xbdb84425	-0.089973725
42	0xbe7bcaff	-0.24589156
43	0x3e9d7f0e	0.30760998
44	0xbeb22c7e	-0.3479957
45	0xbea0a6bb	-0.31377205
46	0x3e4b5f26	0.19860515
47	0x3e5d4031	0.21606518
48	0xbe4711a6	-0.19440326
49	0xbd6c3f11	-0.057677332
50	0xbd8fe30b	-0.07025727
51	0xbda52946	-0.08064513
52	0xbe877bb7	-0.26461574
53	0x3e68b0e9	0.22723736
54	0xbdeb9e29	-0.11504776
55	0xbd4633de	-0.04838931
56	0x3e1673ba	0.14692584
57	0xbe862882	-0.2620278
58	0x3e7a91e6	0.24469718
59	0x3e0c33a9	0.13691582
60	0x3d566c91	0.05234963
61	0xbe51cf98	-0.20489347
62	0xbe06904a	-0.1314098
63	0x3e545199	0.20734252
64	0x3e4d22b7	0.20032774
65	0xbe0e138c	-0.13874644
66	0xbd85f189	-0.0654021
67	0xbe91bd9a	-0.28464967
68	0x3e353a61	0.17698051
69	0x3dc30b47	0.09523635
70	0x3e362b1a	0.1778988
71	0x3cba5d42	0.022749547
72	0x3eb2892a	0.34870273
73	0x3eb5a6d6	0.35478848
74	0xbe50bb48	-0.20383942
75	0xbd85980b	-0.065231405
76	0x3d2dcd36	0.042432033
77	0xbebfd906	-0.37470263
78	0x3e283362	0.16425851
79	0xbe45bece	-0.19311067
80	0x3e2c76f7	0.16842256
81	0xbe83dce0	-0.25754452
82	0x3d6d4b3b	0.057933073
83	0x3e969114	0.2940756
84	0x3da70c04	0.08156589
85	0xbeda2a60	-0.42610455
86	0x3e0986a5	0.13430269
87	0x3cac01b4	0.020996906
88	0xbd0857a6	-0.033286713
89	0xbda9f3bc	-0.08298442
90	0x3d998e1b	0.074978076
91	0xbde8053d	-0.11329124
92	0x3e153d5f	0.14574192
93	0xbe58748c	-0.21138209
94	0x3e8a9c76	0.27072495
95	0xbcfddf8d	-0.030990386
96	0xbcb9d36e	-0.022683825
97	0xbe24ffbb	-0.16113178
98	0xbe64cb35	-0.22343142
99	0xbd7a5d92	-0.06112439
100	0xbc5308c5	-0.012880509
101	0x3e221857	0.15829597
102	0x3ed4488a	0.41461593
103	0x3e29edee	0.16594669
104	0x3dbef1bf	0.09323453
105	0x3ea0ac6b	0.31381544
106	0x3e0c9f6e	0.13732693
107	0xbdbfa1c9	-0.0935703
108	0xbc4373be	-0.011929451
109	0x3c9f36b9	0.019435273
110	0xbec71feb	-0.3889154
111	0xbe165633	-0.1468132
112	0xbe819e1b	-0.25315937
113	0x3e2262a6	0.15857944
114	0x3dc485b0	0.09595811
115	0xbeee93bb	-0.46597084
116	0x3e5f62d9	0.21815051
117	0xbdaa1654	-0.0830504
118	0x3e5d4062	0.21606591
119	0x3d33744a	0.043812074
120	0x3cbfcdcf	0.023413567
121	0xbe48f446	-0.19624433
122	0xbdecc1a8	-0.115603745
123	0xbe574218	-0.21021307
124	0x3c935667	0.017985536
125	0x3d8206bc	0.06348941
126	0x3e42c417	0.19020115
127	0x3d7cf133	0.061753463
128	0x3e556fa7	0.20843373
129	0xbd161eb2	-0.036650367
130	0xbd345c20	-0.04403317
131	0xbe311413	-0.17292814
132	0x3e44cc31	0.19218518
133	0xbeced2b5	-0.40395132
134	0x3da470bd	0.080293156
135	0x3e436044	0.19079691
136	0xbd123150	-0.03569156
137	0x3e4a65db	0.19765417
138	0x3e3aa0f7	0.18225466
139	0x3e0692cf	0.1314194
140	0x3db7e6ef	0.08979594
141	0x3d382376	0.044955693
142	0x3cc148c1	0.023594262
143	0xbe5a09a9	-0.21292748
144	0x3c8d4f3a	0.017249692
145	0xbe4d034e	-0.20020792
146	0x3eb7f4af	0.35928866
147	0xbde8aed8	-0.11361474
148	0xbd3cae75	-0.046064813
149	0xbdb9d7e2	-0.090743795
150	0x3e57ad97	0.21062313
151	0x3e845b2c	0.2585081
152	0xbe4d059a	-0.20021668
153	0x3e8d738e	0.27627224
154	0x3e0e8a67	0.13919984
155	0x3ec841a5	0.39112583
156	0xbe6ebf46	-0.23315153
157	0xbe108314	-0.14112502
158	0x3e01308f	0.1261618
159	0x3e60f6fa	0.21969214
160	0x3e8e04c7	0.2773802
161	0x3d297e79	0.04138038
162	0x3e552264	0.208139
163	0x3e577322	0.21040013
164	0x3e2e5e40	0.17028141
165	0x3f06535b	0.5247094
166	0xbc9ed865	-0.019390294
167	0x3e5fed5c	0.21867889
168	0xbeb06bba	-0.3445719
169	0x3bdaa193	0.006672093
170	0x3e59aeb7	0.21258055
171	0x3e200e01	0.15630342
172	0x3d0e05da	0.03467355
173	0xbc8a8a2c	-0.016911589
174	0xbef3d7a9	-0.47625473
175	0x3ebcfed6	0.36913174
176	0x3ea021ae	0.31275696
177	0xbe69040f	-0.22755454
178	0x3ef83508	0.4847796
179	0xbd23bf13	-0.039977144
180	0xbe22d3e3	-0.15901141
181	0xbd6bed37	-0.057599273
182	0x3d1b95eb	0.03798477
183	0xbe1ebdbe	-0.15502068
184	0xbe249f02	-0.16076282
185	0x3e80df62	0.25170428
186	0xbebb0bd4	-0.36532462
187	0x3e380a7e	0.17972752
188	0xbd0d1ff0	-0.034454286
189	0x3e1a3f9a	0.15063325
190	0x3e7f35ff	0.24922942
191	0xbe03af7e	-0.12859914
192	0xbe95a7ea	-0.2922967
193	0x3e180136	0.14844212
194	0x3dcedff7	0.10101312
195	0xbf08ac92	-0.5338832
196	0xbe5342f8	-0.20631015
197	0xbe8b5081	-0.27209857
198	0xbdfa6c7d	-0.12227724
199	0xbe61af3a	-0.220395
200	0xbe2e282c	-0.17007512
201	0xbd9c83dd	-0.076423384
202	0x3db581aa	0.08862622
203	0xbda56892	-0.08076586
204	0xbedf3500	-0.43595123
205	0x3ddaa10f	0.10675251
206	0xbeaa80cb	-0.33301386
207	0xbf0b7c8b	-0.5448691
208	0xbe6ee0bf	-0.23327921
209	0x3caeeeb0	0.02135405
210	0x3d7826af	0.060583767
211	0xbeb4f8dc	-0.35346115
212	0x3b97ed40	0.0046364367
213	0xbe45782d	-0.19284125
214	0x3d758697	0.059942808
215	0x3e6c784f	0.23092769
216	0x3e364316	0.17799029
217	0x3e824592	0.25443703
218	0xbe3bf869	-0.1835648
219	0x3e0da22f	0.138314
220	0xbe0383e6	-0.12843284
221	0xbe34e8f4	-0.1766699
222	0xbea372df	-0.31923577
223	0x3e9346f6	0.28765076
224	0x3b6c2eab	0.0036038558
225	0x3d66fa3a	0.05639098
226	0xbdbf7267	-0.093479924
227	0x3e488494	0.19581825
228	0xbdb9d9b7	-0.09074729
229	0xbe6d1f79	-0.23156537
230	0xbe95a7be	-0.2922954
231	0x3e7f170d	0.24911137
232	0xbdf44e49	-0.11928994
233	0x3d082ff2	0.03324885
234	0xbe7e0c7d	-0.24809451
235	0xbd8e4b3b	-0.06947943
236	0xbec36009	-0.38159207
237	0x3e6d9c3b	0.23204128
238	0x3eb05e64	0.34447014
239	0x3e3a2bee	0.1818082
240	0x3da1cb77	0.07900136
241	0xbdb2a58b	-0.08722981
242	0xbc98cd64	-0.018652625
243	0x3e7928f7	0.24332033
244	0xbe3c044b	-0.18361013
245	0xbde62ba8	-0.112387955
246	0xbd607ca2	-0.05480636
247	0xbe60092d	-0.218785
248	0x3c9caa45	0.01912416
249	0xbd8b2958	-0.06794995
250	0x3e54363e	0.20723817
251	0x3e4c1d15	0.19932969
252	0xbe9e6778	-0.30938315
253	0x3e19dc92	0.15025547
254	0xbd9ba706	-0.076002166
255	0xbe9ea229	-0.30983093

conv1.bias f4 [256]
0	0xbe023ffd	-0.12719722
1	0xbdcfbadb	-0.10143062
2	0xbdea7b0b	-0.1144925
3	0x3b76591f	0.0037589741
4	0xbdc6c0f0	-0.09704769
5	0x3deca358	0.11554593
6	0xbd98e9ce	-0.0746647
7	0x3d8709a9	0.065936394
8	0x3e319c66	0.17344818
9	0xbd003599	-0.031301115
10	0xbcc4fcb9	-0.024046289
11	0xbd3a1f13	-0.04543979
12	0x3e53608f	0.20642303
13	0xbcc6976f	-0.024242131
14	0xbc612348	-0.013741322
15	0xbcc217a5	-0.023692915
16	0xbc90df77	-0.017684681
17	0xbd049fc1	-0.032378916
18	0xbc8e9a27	-0.01740749
19	0xbd5551e8	-0.052080065
20	0xbc4ed0ed	-0.012623054
21	0x3e215fd9	0.15759219
22	0x3b41180b	0.0029463794
23	0xbdb368e9	-0.087602444
24	0x3c29a6ce	0.010354711
25	0xbdff71df	-0.12472891
26	0xbaaaa37c	-0.0013018693
27	0xbc70267b	-0.014657612
28	0xbd1ee01e	-0.038787954
29	0xbdd62521	-0.104563005
30	0xbe0a49ed	-0.13504763
31	0xbc68c74c	-0.014207672
32	0xbd23da5b	-0.040003162
33	0xbb045dfd	-0.0020197623
34	0x3ca02b40	0.019551873
35	0xbd4f87ff	-0.050666805
36	0xbdbc38e1	-0.09190536
37	0xbc66d137	-0.014087967
38	0xbd0d302f	-0.03446978
39	0x3e09c551	0.13454176
40	0xbb15a8b9	-0.0022836162
41	0xbcb277cf	-0.021785645
42	0xbc5680fd	-0.013092277
43	0xbc939613	-0.018015897
44	0xbd3c47ad	-0.045966793
45	0xbd69ab79	-0.057048295
46	0x3de4536c	0.11148724
47	0xbc9ce87a	-0.019153822
48	0xba85c5a8	-0.0010206001
49	0xbdafd942	-0.085863605
50	0x3d675c55	0.05648454
51	0x3ce94536	0.028475385
52	0xbd346536	-0.044041835
53	0xbd0c5c61	-0.034267787
54	0xbc97053e	-0.018435117
55	0xbcbde65e	-0.023181137
56	0xbd4dab70	-0.050212324
57	0xbd2f5fa2	-0.042815812
58	0xbce36538	-0.027758226
59	0xbe01a4be	-0.126605
60	0x3da7ab7f	0.08187007
61	0xbe3e0b31	-0.18558957
62	0xbd5e0dfd	-0.05421256
63	0xbcb40bfa	-0.021978367
64	0x3dc34894	0.095353276
65	0xbd388dc5	-0.045057077
66	0x3d950c8a	0.07277782
67	0x3cdf3764	0.027248092
68	0xbd507231	-0.05089015
69	0xbdc1231a	-0.09430523
70	0xbd4f72dd	-0.05064665
71	0xbcbe6b84	-0.023244627
72	0xbdca030b	-0.09863862
73	0xbd5e7658	-0.05431208
74	0xbdaeb494	-0.08530536
75	0xbb8cfd6e	-0.004302672
76	0xbca2653a	-0.01982366
77	0x3e2acf0c	0.16680545
78	0xbc80f49c	-0.015741639
79	0xbd71fb9e	-0.05907785
80	0xbd9ef51c	-0.07761595
81	0xbb2f2eb9	-0.002673073
82	0x3d4af0c2	0.04954601
83	0x3d7dc431	0.06195468
84	0x3c9ad0e6	0.018898439
85	0xbcda3be6	-0.02663989
86	0xbbd1529f	-0.006388023
87	0xbc3037a1	-0.01075545
88	0x3c893edd	0.016753608
89	0xbd83e412	-0.06439985
90	0x3d187e3e	0.03722977
91	0xbd9a482f	-0.07533299
92	0xbc8d3285	-0.017236004
93	0xbbf72797	-0.0075425613
94	0xbd07f36a	-0.033191122
95	0xbd13ca8f	-0.036081847
96	0xbd218020	-0.03942883
97	0xbcba0394	-0.022706784
98	0xbd234b0b	-0.03986649
99	0xbcd3fdd2	-0.025877867
100	0x3ded30eb	0.11581596
101	0x3cf2f246	0.02965654
102	0xbd0f4c89	-0.0349851
103	0x3d61ea50	0.0551551
104	0xbd1f14fd	-0.038838375
105	0xbc9d4766	-0.019199084
106	0xbc045f9e	-0.008079438
107	0x3dc660e5	0.0968645
108	0xbdcee10a	-0.101015165
109	0xbcb26a1a	-0.021779109
110	0xbd44f8c9	-0.048088823
111	0xbcfbe3fd	-0.030748362
112	0xb9c8962b	-0.00038258857
113	0x3d466c36	0.04844304
114	0x3d9aacbe	0.07552479
115	0xbd347e1e	-0.044065587
116	0xbd8cead0	-0.068807244
117	0x3d6bef69	0.057601366
118	0x3ca03382	0.01955581
119	0xbdc1e0bd	-0.094666936
120	0xbd4e321f	-0.050340768
121	0xbd071c3b	-0.032985907
122	0xbcf1a32b	-0.02949675
123	0xbd55dce5	-0.052212615
124	0x3cfeba4d	0.031094695
125	0x3e848308	0.2588122
126	0x3d6fb1e8	0.058519274
127	0xbb89dd6a	-0.004207303
128	0xbca08d42	-0.019598607
129	0xbddd12c2	-0.107945934
130	0xbe15d0fc	-0.14630502
131	0x3d277a1a	0.04088793
132	0xbda7308e	-0.08163558
133	0xbce134e4	-0.02749104
134	0xbd745ceb	-0.059658926
135	0xbe4ce5b4	-0.200095
136	0xbdf94861	-0.12172008
137	0xbdd10143	-0.10205319
138	0x3b872c15	0.004125128
139	0xbc86de80	-0.016463518
140	0xbe747c8e	-0.23875639
141	0x3cb42acd	0.021993065
142	0x3e13af62	0.14422372
143	0xbd1e6791	-0.038672987
144	0xbda33654	-0.07969347
145	0xbd057a6f	-0.032587465
146	0xbe11f5e6	-0.14253959
147	0xbd3688c9	-0.044564042
148	0xbe37c3cc	-0.17945784
149	0xbc9aa595	-0.018877784
150	0xbc32b1cb	-0.010906647
151	0xbd1d76c8	-0.038443357
152	0x3d3c5f5b	0.045989376
153	0xbd516978	-0.051125973
154	0xbdbd34aa	-0.092385605
155	0xbc9cea41	-0.01915467
156	0xbbed23e5	-0.007236945
157	0xbc38c7f4	-0.011278141
158	0xbd676a73	-0.056498002
159	0xbd387b67	-0.04503956
160	0x3d8fcba1	0.07021261
161	0xbde4e6a1	-0.111768015
162	0xbdf4c370	-0.11951339
163	0xbc972700	-0.018451214
164	0xbcbc63cf	-0.022996811
165	0xbd2146a6	-0.039374016
166	0xbcbc9095	-0.02301816
167	0x3db1fae8	0.08690435
168	0xbcb322ad	-0.02186712
169	0x3d9a748f	0.07541763
170	0x3d22aa55	0.039713223
171	0x3d274c15	0.04084404
172	0xbcc1a6eb	-0.023639163
173	0xbc3a29ba	-0.011362487
174	0xbd3601fb	-0.044435482
175	0x3cb732cd	0.02236309
176	0xbe5c9c24	-0.21543938
177	0xbdb8cc55	-0.09023348
178	0xbe35d93f	-0.17758654
179	0xbdc601e0	-0.096683264
180	0xbdbe2ab8	-0.09285492
181	0xbd09d1bf	-0.033647295
182	0xbd86ffff	-0.06591796
183	0xbd0a1214	-0.033708647
184	0xbd25d40e	-0.040485434
185	0xbe449fb0	-0.19201541
186	0xbd5779dd	-0.052606452
187	0xbe3d2d70	-0.18474364
188	0xbe0d41a3	-0.1379457
189	0xbcc04fa0	-0.023475468
190	0xbd806700	-0.06269646
191	0xbda232aa	-0.0791982
192	0xbd02d976	-0.03194567
193	0x3def1322	0.11673571
194	0xbd273c4a	-0.04082898
195	0xbc1270a4	-0.008937988
196	0xbdc1da3b	-0.09465452
197	0xbe3256ab	-0.17415874
198	0xbe82c6ea	-0.25542384
199	0xbc831aad	-0.016003931
200	0x3bc3382b	0.0059576235
201	0xbd821efc	-0.06353566
202	0x3d675fb3	0.05648775
203	0x3d45efff	0.04832458
204	0xbb8e7b2c	-0.0043481793
205	0xbd8964e2	-0.06708695
206	0xbc91f8f5	-0.017818907
207	0x3cef655b	0.029223135
208	0xbd973f09	-0.0738507
209	0xbb7c6e85	-0.0038518023
210	0xbca19128	-0.019722536
211	0xbd75fc44	-0.060055032
212	0x3dce1e87	0.100644164
213	0xbd99d35c	-0.07511017
214	0xbd856103	-0.06512644
215	0xbd1104eb	-0.03540508
216	0xbe17d815	-0.14828523
217	0xbd071ea4	-0.032988206
218	0xbca9d9e8	-0.020733789
219	0x3d0a113e	0.03370785
220	0xbdbdc989	-0.092669554
221	0xbbc32dda	-0.0059563937
222	0xbb910421	-0.004425541
223	0xbde31d49	-0.1108957
224	0xbe1d6c8b	-0.15373437
225	0xbd93a901	-0.07209969
226	0xbcda6951	-0.026661547
227	0xbd2411ac	-0.040055916
228	0xbd2eaf25	-0.0426475
229	0xbdeb1718	-0.11479014
230	0x3d937d30	0.07201612
231	0xbc57e917	-0.013178132
232	0xbd4bb90c	-0.04973702
233	0xbd37a41f	-0.044834252
234	0xbc1d7281	-0.009609819
235	0xbe3d4297	-0.18482433
236	0x3cc29b5e	0.023755725
237	0xbb4625ed	-0.0030235008
238	0xbda4930a	-0.08035858
239	0xbc9b3c96	-0.018949788
240	0xbc491b67	-0.0122746
241	0x3d2adabb	0.041712504
242	0x3c9c7bb0	0.019101948
243	0xbcd1eea9	-0.025626497
244	0xbd1a75d0	-0.03771001
245	0x3d9b6b95	0.07588879
246	0xbc9c597f	-0.019085644
247	0xbc45ab06	-0.012064701
248	0xbc292eaf	-0.010326072
249	0x3e5f707b	0.21820252
250	0xbdefb1e1	-0.117038496
251	0xbd2293a5	-0.039691586
252	0x3d02c3a3	0.031924855
253	0xbe7c273c	-0.24624342
254	0x3caa676b	0.020801267
255	0x3d452a98	0.048136324

conv1.lin.weight f4 [256, 66]
0	0x3de83867	0.11338883
1	0x3df9d5de	0.12198995
2	0x3def08d7	0.11671608
3	0x3d6e03dc	0.05810915
4	0x3e321325	0.17390116
5	0xbe209c5b	-0.15684645
6	0x3d92885f	0.07154917
7	0xbdbf4baf	-0.093406074
8	0x3a9a815c	0.001178782
9	0xbdbbdd99	-0.09173126
10	0x385d95f4	5.283016e-05
11	0x3dbc210a	0.09185989
12	0xbd299ac4	-0.04140736
13	0xbbb5426a	-0.005531599
14	0x3e9d8a8f	0.30769774
15	0x3e277729	0.1635405
16	0xbb1f98da	-0.0024352581
17	0x3b9dee07	0.004819635
18	0x3d975901	0.07390023
19	0x3d3c97cd	0.046043206
20	0xbe952774	-0.29131663
21	0xbda21553	-0.079142235
22	0x3dac1b39	0.0840363
23	0xbd9f197f	-0.07768535
24	0x3e057824	0.13034111
25	0x3d0e495a	0.034737922
26	0x3dee2cb8	0.11629623
27	0x3dbe71a4	0.09299019
28	0xbe3322a4	-0.17493683
29	0x3d316481	0.04330874
30	0xbe0f4dcb	-0.1399452
31	0xbe4b713d	-0.19867416
32	0x3cac6739	0.021045314
33	0xbe9026d4	-0.28154624
34	0xbdb0f6ab	-0.08640798
35	0x3d88ee4b	0.06686076
36	0xbce6adb4	-0.028159
37	0xbbbf6f24	-0.0058421064
38	0x3e46436f	0.19361661
39	0xbde99af4	-0.11406508
40	0x3d041af9	0.032252286
41	0x3b88a4c2	0.0041700313
42	0xbe83e632	-0.25761563
43	0x3d1ac3d5	0.037784416
44	0x3e48d954	0.19614154
45	0xbdf8db4f	-0.12151205
46	0xbe1c3f91	-0.15258624
47	0xbe62a6a8	-0.22133887
48	0x3e2381f4	0.15967542
49	0xbd9f6562	-0.07783009
50	0xbdd70709	-0.10499389
51	0x3ca1fe8b	0.019774696
52	0xbdf5bbb5	-0.11998693
53	0x3e2b6434	0.16737443
54	0x3e293eda	0.16527882
55	0xbe8d7d95	-0.27634874
56	0x3e090a5a	0.13382855
57	0xbd72df0f	-0.059294757
58	0xbd54f6b8	-0.0519931
59	0xbe5f2789	-0.21792425
60	0xbcdc2b41	-0.026876094
61	0xbcb8cdec	-0.022559129
62	0x3e1e16d9	0.15438403
63	0x3e25f8ac	0.16208142
64	0xbe3b5291	-0.18293215
65	0xbccfbca3	-0.025358504
66	0xbce79955	-0.028271357
67	0xbe2fe365	-0.17176588
68	0x3e2f520b	0.1712114
69	0x3e7782b4	0.24170953
70	0xbd915999	-0.070971675
71	0xbd7fff2e	-0.062499218
72	0xbe57ea70	-0.21085525
73	0xbddb3b0e	-0.10704623
74	0x3d317881	0.043327812
75	0xbe0a55d6	-0.13509306
76	0xbd270548	-0.04077652
77	0x3ea9d526	0.33170432
78	0xbe1bb5fb	-0.15206139
79	0x3d705f47	0.058684614
80	0xbddde0fd	-0.10833929
81	0x3ea980a5	0.3310596
82	0x3e2239ce	0.15842363
83	0x3e2ce392	0.16883686
84	0x3de0e3a8	0.10980922
85	0xbe109a44	-0.14121348
86	0xbc76a4a6	-0.015053904
87	0xbc2ab2cc	-0.010418605
88	0xbdaf8fcb	-0.08572348
89	0x3e1f38a2	0.15548947
90	0x3dfbe1ed	0.12298951
91	0xbd3aa7db	-0.045570236
92	0x3e2dd392	0.16975239
93	0xbda65614	-0.08121887
94	0xbe8b4411	-0.27200368
95	0x3bb0a04a	0.0053902017
96	0xbe24e4c7	-0.16102897
97	0xbe9265bd	-0.28593245
98	0x3ea82077	0.3283727
99	0xbe22b9a3	-0.15891127
100	0xbc121b0e	-0.008917583
101	0x3c99434a	0.018708844
102	0x3db5f5b9	0.088847585
103	0x3ddb3a6d	0.10704503
104	0x3e601eee	0.21886799
105	0x3e43f50d	0.19136448
106	0xbe894c40	-0.26815987
107	0xbe50e8ad	-0.20401259
108	0x3cfc7ec4	0.030822165
109	0xbd848d4f	-0.06472265
110	0xbd20d50c	-0.039265677
111	0x3de37f4a	0.11108263
112	0x3e6d0964	0.23148113
113	0xbe21fb18	-0.15818441
114	0x3c87a8e3	0.016560024
115	0x3d8e0b90	0.06935799
116	0xbea7a97d	-0.32746497
117	0xbd4ae293	-0.049532484
118	0xbd81c77f	-0.06336879
119	0xbe145048	-0.1448375
120	0xbe1a50d6	-0.15069899
121	0x3d924b9d	0.07143328
122	0xbe02ef95	-0.12786706
123	0xbd485a3e	-0.048914187
124	0x3e53b392	0.2067397
125	0xbf05ceb7	-0.52268547
126	0x3e2b3bb8	0.16722
127	0xbdd710fd	-0.10501287
128	0x3ce1eb80	0.027578115
129	0xbd935a31	-0.07194937
130	0xbe80722b	-0.25087103
131	0xbafd273e	-0.0019314063
132	0xbe4cb266	-0.19989929
133	0x3dc5188e	0.09623824
134	0x3e1b39c3	0.15158753
135	0xbd929f7a	-0.07159324
136	0xbd3c0a26	-0.045908116
137	0x3d959978	0.073046625
138	0x3ca355a6	0.019938301
139	0x3afc2d1f	0.0019239521
140	0x3eafd203	0.34339914
141	0x3d1055ca	0.035238065
142	0xbe5f441f	-0.2180333
143	0xbe72b568	-0.23702013
144	0x3cfb0ce6	0.030645799
145	0xbc7ea04d	-0.015541148
146	0xbdb09bf6	-0.08623497
147	0xbd4a82ac	-0.049441025
148	0xbcac18af	-0.021007864
149	0xbe673556	-0.2257894
150	0xbcdf6f0d	-0.027274633
151	0x3bfb5d02	0.0076709995
152	0x3e08ae2e	0.13347694
153	0xbdb040bb	-0.08606096
154	0x3de41a37	0.111378126
155	0x3cac0f8c	0.021003507
156	0x3e1e3755	0.15450795
157	0xbe9096ab	-0.2823995
158	0xbd91c696	-0.071179554
159	0xbe6c32df	-0.23066281
160	0x3e055773	0.1302164
161	0xbd2a62aa	-0.041598
162	0x3e489139	0.19586648
163	0x3da6bb95	0.08141247
164	0xbede3115	-0.43396822
165	0x3e37286b	0.17886512
166	0xbddaf66d	-0.10691533
167	0xbdf6bcda	-0.12047739
168	0x3e45949c	0.19294971
169	0xbe262b58	-0.16227472
170	0xbdb24889	-0.08705241
171	0x3e99c806	0.30035418
172	0xbd948bb7	-0.07253211
173	0xbe7c96a7	-0.24666844
174	0x3cc4e743	0.024036055
175	0x3d72d6ba	0.05928681
176	0x3e003676	0.12520775
177	0xbe1c0da9	-0.15239586
178	0x3cd466c4	0.025927909
179	0x3dad4318	0.08460063
180	0x3b084210	0.002079133
181	0x3e8f9aa8	0.2804768
182	0x3ea78945	0.32721916
183	0xbd60b7a1	-0.054862622
184	0xbe852c59	-0.26010397
185	0xbe8680c0	-0.26270103
186	0x3c65a627	0.014016665
187	0xbe79d6f8	-0.2439841
188	0xbea11466	-0.31460875
189	0x3d47a04b	0.04873685
190	0xbe307613	-0.17232542
191	0x3e9afe6c	0.30272233
192	0x3ea5aaff	0.32357022
193	0x3dcb0d04	0.09914592
194	0x3c411d53	0.011786777
195	0xbbafd13b	-0.0053655184
196	0x3e24e1e6	0.16101798
197	0xbe110cea	-0.14165083
198	0xbb899604	-0.0041987915
199	0xbe8e0742	-0.27739912
200	0xbe68d750	-0.22738385
201	0x3d8e315c	0.06943008
202	0xbe4a8221	-0.19776203
203	0x3c61065c	0.013734426
204	0x3d24d644	0.040243402
205	0x3d51ed0b	0.051251452
206	0x3c605353	0.013691741
207	0xbe168715	-0.14699967
208	0x3cb0105a	0.021492172
209	0x3dda1afd	0.10649679
210	0x3dc2ee3b	0.09518095
211	0xbd4665a1	-0.048436765
212	0x3e79e43e	0.24403474
213	0xbb5161a7	-0.0031949074
214	0x3e235bc3	0.15952973
215	0x3ebdc8db	0.37067303
216	0x3e95d122	0.29261118
217	0x3cd3ee84	0.025870569
218	0xbe8fe8b9	-0.2810724
219	0xbe16a09a	-0.14709702
220	0xbec031be	-0.3753795
221	0xbd88bdee	-0.06676851
222	0x3c650404	0.013978008
223	0x3c936c6e	0.01799604
224	0xbce5f396	-0.028070252
225	0xbe11495f	-0.14188145
226	0x3c67b5d4	0.014142472
227	0xbd7e411d	-0.062073816
228	0xbb4699a7	-0.0030303986
229	0x3d28fffa	0.041259743
230	0x3dd8652c	0.10566172
231	0xbd805fd3	-0.06268277
232	0xbc749351	-0.014927701
233	0xbd829be9	-0.06377394
234	0xbe821969	-0.2541001
235	0x3e7e61f8	0.2484206
236	0xbe41e960	-0.18936682
237	0x3d7cff03	0.061766636
238	0xbda67440	-0.08127642
239	0x3e4fbee1	0.20287658
240	0xbdf4bf78	-0.11950582
241	0xbde4ad0b	-0.11165818
242	0xbddc00e4	-0.107423574
243	0xbcf1da85	-0.029523144
244	0x3df31d03	0.11870768
245	0x3dc5c059	0.09655828
246	0xbe1db94b	-0.15402715
247	0xbf0ee6b2	-0.55820763
248	0xbe7520a0	-0.23938227
249	0x3cc26510	0.023729831
250	0x3dd56ed1	0.10421527
251	0x3e35cfa8	0.17754996
252	0x3e1ec9fa	0.15506735
253	0x3e78878e	0.2427046
254	0x3c933609	0.017970102
255	0xbdc4117e	-0.09573649

conv2.att_src f4 [1, 4, 64]
0	0xbe326129	-0.17419876
1	0xbd3bd5f8	-0.045858353
2	0x3d86fb32	0.065908805
3	0x3e11b599	0.1422943
4	0xbcb1e0be	-0.02171361
5	0x3e0d66cc	0.13808745
6	0xbe6104af	-0.21974443
7	0xbdc55a7f	-0.096364014
8	0x3b4f5ed4	0.0031642215
9	0x3e0c37c0	0.13693142
10	0x3dd2d213	0.10293975
11	0xbe8a00b7	-0.2695367
12	0xbdf286f7	-0.11842149
13	0x3d688831	0.056770507
14	0xbea64c23	-0.32479963
15	0xbd4da45e	-0.05020558
16	0x3dc88a50	0.09792006
17	0x3d508835	0.050911147
18	0x3ea56b8d	0.32308617
19	0x3bff9b51	0.0078004976
20	0x3e98db10	0.2985463
21	0x3e93de6d	0.28880635
22	0xbc80026a	-0.015626151
23	0x3d0acbd2	0.033885784
24	0x3e9caa55	0.30598703
25	0x3e2611d5	0.1621774
26	0xbe7f87a8	-0.24954093
27	0x3d870315	0.06592385
28	0xbe806ec5	-0.2508451
29	0xbdd074fa	-0.101785615
30	0x3e81e515	0.25370088
31	0xbe52fa14	-0.2060321
32	0xbe02cfa1	-0.12774517
33	0x3e6fa2bd	0.23401923
34	0xbcb46125	-0.022018978
35	0xbe02545c	-0.12727493
36	0x3ca59fc5	0.020217786
37	0xbe4dece1	-0.20109893
38	0x3ccfc071	0.025360318
39	0x3e096c1a	0.13420144
40	0x3d47187d	0.04860734
41	0x3d7555af	0.059896167
42	0x3dd6cb03	0.1048794
43	0xbe83fa9e	-0.25777143
44	0x3e27ec66	0.16398773
45	0xbe83f3b1	-0.2577186
46	0xbe6407df	-0.22268628
47	0x3ea01fe6	0.31274337
48	0xbe396ddc	-0.18108314
49	0x3d24fe0a	0.040281333
50	0xbd9c1978	-0.07622045
51	0x3e0b805a	0.13623181
52	0xbe554964	-0.20828778
53	0xbe672307	-0.22571956
54	0xbe3df407	-0.1855012
55	0xbe1d3790	-0.15353227
56	0x3e78621a	0.24256173
57	0x3e041b09	0.12900938
58	0xbdd5da3f	-0.10442018
59	0x3e430e78	0.19048488
60	0x3d2636af	0.040579494
61	0x3aec70ff	0.0018039047
62	0xbd94d8b1	-0.07267893
63	0xbc9b8431	-0.018983932
64	0xbdb10b44	-0.08644727
65	0xbe6962b5	-0.2279156
66	0xbe7160ab	-0.23572032
67	0x3e3a7679	0.18209256
68	0xbd1c1aef	-0.038111623
69	0xbe708a4c	-0.23490256
70	0xbdc9a91e	-0.0984671
71	0xbad90ee9	-0.001656023
72	0xbd820d60	-0.06350207
73	0x3dbc9de0	0.092098
74	0x3d53ea6e	0.05173724
75	0xbd493c96	-0.049130045
76	0x3de6a941	0.11262751
77	0x3e427dff	0.18993376
78	0xbe882580	-0.2659111
79	0xbd2718f6	-0.04079529
80	0xbd3c42fe	-0.045962326
81	0xbddd10ec	-0.10794243
82	0xbe711b1f	-0.23545502
83	0xbe364d59	-0.17802943
84	0x3d563bf0	0.052303255
85	0xbe9c2375	-0.30495802
86	0xbe30ed6a	-0.17278066
87	0x3d76a7ca	0.06021861
88	0x3d3b411a	0.045716383
89	0xbda3e63d	-0.08002899
90	0x3dc2a622	0.095043436
91	0x3e516ae0	0.20450926
92	0xbe8f73a0	-0.28017902
93	0x3e3ba94a	0.18326297
94	0x3d811960	0.06303668
95	0x3e1e65c0	0.15468502
96	0xbecf7dae	-0.40525573
97	0xbdd0fa39	-0.10203976
98	0xbc22ac23	-0.009928736
99	0x3da5767b	0.08079239
100	0x3e122282	0.14270976
101	0x3df9351a	0.121683314
102	0xbd1a6319	-0.037692163
103	0xbe9ff2a4	-0.31239808
104	0x3e510a85	0.20414169
105	0xbe8297f7	-0.25506565
106	0x3e84251c	0.25809562
107	0xbe5bc887	-0.21463214
108	0x3e97c236	0.2964036
109	0x3df727aa	0.12068112
110	0x3e73d6d9	0.23812427
111	0x3e21a791	0.15786578
112	0x3ccc5aa5	0.024945566
113	0xbe534517	-0.20631824
114	0xbdee3755	-0.116316475
115	0xbe7e592d	-0.24838705
116	0xbd52134d	-0.051287938
117	0x3e00c764	0.12576061
118	0x3e15d966	0.14633712
119	0xbe8793f2	-0.2648006
120	0x3cb3d3e7	0.021951629
121	0xbe742d2f	-0.23845361
122	0x3ea5f950	0.32416773
123	0xbe67bbfe	-0.22630307
124	0xbd9935a6	-0.07480936
125	0xbe451da0	-0.19249582
126	0x3daef627	0.085430436
127	0xbe20dbbc	-0.15708822
128	0x3e9b5295	0.30336443
129	0x3dca651d	0.09882567
130	0x3e4cc277	0.19996057
131	0xbeb0cfcc	-0.34533536
132	0x3eaf3e2f	0.3422713
133	0xbeab096e	-0.33405632
134	0xbc155f71	-0.009116993
135	0x3e2ac2b1	0.16675831
136	0x3dfcf860	0.12352061
137	0x3c042120	0.008064538
138	0xbe1700e5	-0.14746435
139	0x3e59cb26	0.21268901
140	0x3b4c96e6	0.0031217872
141	0xbcb8ab66	-0.022542667
142	0x3e42eab1	0.1903484
143	0xbe526251	-0.20545317
144	0xbcfb9eda	-0.030715395
145	0x3d0ff442	0.03514505
146	0xbe472edc	-0.19451469
147	0x3e0273dd	0.12739511
148	0x3eaadcf5	0.33371702
149	0x3e51e9e6	0.20499381
150	0xbc442682	-0.011972072
151	0x3ead5f9d	0.3386201
152	0x3e31b952	0.1735585
153	0x3e315faa	0.17321649
154	0x3d5f19d5	0.054467995
155	0x3ac6b33e	0.001515962
156	0x3e44b940	0.19211292
157	0xbe735e72	-0.23766497
158	0xbde965ab	-0.11396345
159	0xbdc2e907	-0.09517103
160	0xbcffc24e	-0.031220581
161	0xbe284ae9	-0.16434826
162	0x3e09bbf9	0.13450612
163	0xbe0c56c0	-0.13704967
164	0x3e8f60ab	0.2800344
165	0x3eb51e75	0.353748
166	0x3d247b9a	0.040156938
167	0x3e653b16	0.22385821
168	0x3b9602d1	0.0045779725
169	0xbcf32524	-0.029680796
170	0xbd2d9741	-0.042380575
171	0xbd9037d3	-0.070418976
172	0x3d8de8e3	0.06929185
173	0x3e56965e	0.20955798
174	0xbdddd153	-0.10830941
175	0x3e7fd601	0.2498398
176	0x3e437aba	0.19089785
177	0x3edf5e8c	0.4362682
178	0x3c9b9905	0.018993864
179	0x3c74d04a	0.014942238
180	0x3d8b1bd3	0.067924164
181	0xbb4aaf04	-0.0030927071
182	0xbd773088	-0.060349017
183	0xbd1a426a	-0.037660994
184	0xbdc918d3	-0.09819188
185	0x3c228a1d	0.009920624
186	0xbe273ff0	-0.16332984
187	0xbd54ba12	-0.051935263
188	0x3bad260e	0.0052840775
189	0x3d75135d	0.05983292
190	0x3e2ff493	0.17183141
191	0x3e34fcfc	0.17674631
192	0x3e9f5985	0.31122985
193	0xbe221f7c	-0.15832323
194	0xbd88434b	-0.0665346
195	0x3e4815dd	0.1953959
196	0xbdf6182e	-0.12016331
197	0xbdd1cee1	-0.10244537
198	0x3da65511	0.08121694
199	0x3d96237b	0.07330986
200	0x3e9fd091	0.3121381
201	0x3e9efccf	0.31052253
202	0xbea379ee	-0.31928962
203	0xbe2848a8	-0.16433966
204	0xbd2034e0	-0.039112926
205	0xbeae0c2c	-0.3399366
206	0xbd49a757	-0.049231853
207	0x3ee4ee28	0.4471295
208	0xbe5174c1	-0.20454694
209	0xbe02a116	-0.12756762
210	0x3d4c4563	0.04987086
211	0xbe98ee65	-0.2986938
212	0xbde1459d	-0.10999606
213	0x3da1be1a	0.07897587
214	0x3d837db7	0.064204626
215	0x3d82f93a	0.063951924
216	0x3e08406e	0.13305828
217	0xbd708ab8	-0.058726043
218	0xbe388601	-0.18019868
219	0xbd068db1	-0.03284997
220	0xbed7fba1	-0.42184165
221	0x3e89cbe4	0.2691337
222	0x3d963b62	0.07335545
223	0xbdcd579f	-0.10026478
224	0xbca0b05a	-0.019615341
225	0xbd2896a2	-0.04115928
226	0xbde12570	-0.10993469
227	0xbded6cde	-0.115930304
228	0x3dc92a74	0.098225504
229	0x3da416f3	0.0801219
230	0xbded9e07	-0.11602407
231	0x3d938fb4	0.072051436
232	0xbd87f665	-0.06638793
233	0x3e25149b	0.16121142
234	0xbd5297c8	-0.05141428
235	0xba98f7c3	-0.0011670518
236	0x3e6f63ed	0.23377962
237	0x3baa4586	0.005196276
238	0xbe2d5d07	-0.16930018
239	0x3e5a84fd	0.21339794
240	0xbe76ceff	-0.241024
241	0xbe8433ec	-0.25820863
242	0x3ea556e6	0.3229286
243	0x3c9c8532	0.019106481
244	0xbe28f831	-0.16500928
245	0x3e897319	0.26845625
246	0xbe29f6aa	-0.16598001
247	0x3e7c7477	0.24653803
248	0xbeab7629	-0.33488587
249	0xbdb72a6e	-0.0894364
250	0xbeb61dce	-0.35569614
251	0xbe8696d9	-0.26286963
252	0x3c87ff74	0.016601302
253	0xbe2a333a	-0.16621104
254	0x3c7e5ca3	0.015525016
255	0x3e0178e1	0.12643768

conv2.att_dst f4 [1, 4, 64]
0	0x3d82c6e6	0.06385593
1	0x3e72411d	0.23657651
2	0xbbe1a5f9	-0.0068862406
3	0xbe3ef450	-0.18647885
4	0x3e1cdfe2	0.1531978
5	0xbe102bb8	-0.14079177
6	0xbe87193e	-0.26386446
7	0xbee93bd7	-0.45553467
8	0x3e964914	0.2935263
9	0x3e018449	0.12648119
10	0x3c602ca6	0.01368252
11	0xbc3beea5	-0.0114704715
12	0x3e9c6680	0.3054695
13	0x3eaf4f7b	0.34240326
14	0xbce247e1	-0.027622165
15	0x3e38a734	0.18032533
16	0xbdfd25fa	-0.12360759
17	0x3e820515	0.25394502
18	0x3ee68c97	0.45029137
19	0x3e45e922	0.19327214
20	0x3e84eff5	0.25964323
21	0xbdd0f3ac	-0.10202727
22	0xbed96013	-0.4245611
23	0xbd903e72	-0.070431605
24	0x3d0280df	0.031861182
25	0xbe39f65b	-0.18160383
26	0xbe4c0b26	-0.19926128
27	0xbdf032d2	-0.11728443
28	0xbe54c827	-0.20779477
29	0xbebfa18d	-0.3742794
30	0x3e968fc2	0.29406554
31	0x3cc49074	0.023994662
32	0xbddbedc9	-0.10738713
33	0x3ace8a9c	0.0015757862
34	0x3ee1021f	0.4394693
35	0x3e434f63	0.19073252
36	0xbe8e010e	-0.2773518
37	0xbe733f3e	-0.23754594
38	0x3df9c043	0.12194874
39	0xbda12021	-0.07867456
40	0xbe930bd0	-0.2871995
41	0xbd20a1ab	-0.03921668
42	0x3c97e1c1	0.018540265
43	0x3ea33325	0.31874958
44	0xbeb6214e	-0.35572284
45	0xbdfa0331	-0.1220764
46	0xbe2a6976	-0.16641793
47	0xbd04f03b	-0.032455664
48	0xbeb9a754	-0.36260474
49	0x3df62328	0.12018424
50	0x3d9b24eb	0.07575401
51	0xbe8bbfb5	-0.27294698
52	0xbe067283	-0.1312962
53	0x3c022357	0.007942996
54	0xbdcc0437	-0.099617414
55	0xbeab49c8	-0.33454728
56	0x3e25115b	0.16119902
57	0x3ebf3157	0.3734233
58	0x3b9fe116	0.0048791273
59	0x3cadb457	0.021204157
60	0xbe3f4e0a	-0.18682113
61	0xbe729adc	-0.23691887
62	0xbd7da985	-0.061929245
63	0xbbaf74b2	-0.0053544873
64	0x3d34e6ee	0.044165544
65	0xbe61186a	-0.2198197
66	0x3e45519f	0.19269417
67	0xbdd9ff40	-0.10644388
68	0x3d794dbe	0.060865156
69	0x3e28393f	0.16428088
70	0x3e040706	0.12893304
71	0xbe07e47f	-0.13270758
72	0x3e52ea85	0.20597275
73	0x3c99138b	0.018686077
74	0xbe9441f9	-0.28956583
75	0xbe106b0e	-0.14103338
76	0x3c8cb56b	0.01717635
77	0xbe7820da	-0.24231282
78	0xbe3986af	-0.18117784
79	0xbe5a95fb	-0.21346276
80	0xbed35216	-0.41273564
81	0xbe4cd430	-0.20002818
82	0xbe14f120	-0.14545107
83	0xbbc53f90	-0.00601954
84	0x3e90ae23	0.28257856
85	0xbe62a064	-0.22131497
86	0xbd5aa9fb	-0.053384762
87	0xbe713f13	-0.23559217
88	0xbda7ba78	-0.08189863
89	0x3e7cdc64	0.24693447
90	0x3cad5235	0.021157363
91	0xbd8b396a	-0.0679806
92	0xbef641bc	-0.48097026
93	0xbdd6e9eb	-0.10493835
94	0xbdbb6004	-0.09149173
95	0xbe8b254a	-0.27176887
96	0xbeff5144	-0.49866688
97	0xbe91c1fc	-0.2846831
98	0xbe8bef43	-0.2733098
99	0x3e9e5b10	0.3092885
100	0x3cade0c1	0.021225335
101	0x3d7fd9b7	0.06246349
102	0xbd8bb060	-0.0682075
103	0xbdf91cdc	-0.121637076
104	0x3d7be4f4	0.061497644
105	0xbd0758c2	-0.03304363
106	0x3e0a5cd6	0.13511977
107	0xbecef21c	-0.4041909
108	0x3d8dd331	0.06925047
109	0x3e22a789	0.15884222
110	0x3c7123ed	0.014718038
111	0xbec0908b	-0.37610278
112	0x3eaf9529	0.34293488
113	0x3ddae4f6	0.10688202
114	0x3e80db6e	0.25167412
115	0xbe96562f	-0.29362628
116	0xbcf185c3	-0.029482728
117	0xbe9b0afe	-0.30281824
118	0xbdbabd6c	-0.091181606
119	0x3e1db4f0	0.15401053
120	0x3e819b9e	0.2531404
121	0xbdfed0ea	-0.12442191
122	0x3e8b5b11	0.27217916
123	0x3be9518b	0.0071203164
124	0xbe69de24	-0.22838646
125	0x3e8cf89b	0.2753342
126	0x3e7cbc48	0.24681199
127	0x3e4b3909	0.19845976
128	0x3cffef11	0.031241925
129	0xbda01e23	-0.07818248
130	0x3e415dc3	0.18883424
131	0x3d974704	0.07386592
132	0x3ddc5c9b	0.107598506
133	0xbbc68d7e	-0.0060593477
134	0x3f03973a	0.5140263
135	0xbc012f56	-0.007884821
136	0x3efe0381	0.49612048
137	0xbd911ff8	-0.07086176
138	0xbeab31b4	-0.33436358
139	0x3dd5a88f	0.104325406
140	0xbe268184	-0.16260344
141	0x3ef7a1b6	0.48365563
142	0xbe061057	-0.1309217
143	0x3e226188	0.15857518
144	0x3eaa6663	0.3328124
145	0xbe62ad06	-0.22136316
146	0xbd2dd13d	-0.042435873
147	0xbdb2f102	-0.08737375
148	0xbdc886ed	-0.0979136
149	0xbde5b9d6	-0.11217086
150	0xbd43c45e	-0.047794692
151	0x3e1478a9	0.14499153
152	0x3ea45122	0.3209315
153	0x3e6d2a08	0.23160565
154	0xbe907865	-0.28216854
155	0xbe916147	-0.2839453
156	0xbe2fdf62	-0.17175058
157	0xbeefbad7	-0.46822235
158	0x3f0dfbd9	0.55462414
159	0x3ea05cbc	0.3132075
160	0x3d777992	0.060418673
161	0x3e36cfd0	0.17852712
162	0x3e9011cd	0.2813858
163	0x3e646f89	0.22308172
164	0x3ea2f406	0.318268
165	0xbdc3ba2c	-0.09556994
166	0x3e3bfabf	0.18357371
167	0xbda8bad5	-0.082387604
168	0xbdc0ef7f	-0.0942068
169	0xbe29fea6	-0.16601047
170	0xbe894e81	-0.26817706
171	0x3edc7ec6	0.4306547
172	0xbde40514	-0.11133781
173	0x3dee8986	0.11647324
174	0xbca961e5	-0.020676563
175	0xbdd254ac	-0.10270056
176	0x3e97ee75	0.29674116
177	0x3e81656b	0.25272688
178	0x3e9ed3c1	0.3102093
179	0xbe6c8021	-0.23095752
180	0x3d9c1ba9	0.07622463
181	0x3e147b18	0.14500082
182	0x3eea1857	0.45721695
183	0x3e08054a	0.13283268
184	0xbe6e25fa	-0.23256674
185	0xbdaed263	-0.08536222
186	0x3e0ed69d	0.13949056
187	0xbeb68db1	-0.35654977
188	0x3dcda951	0.1004206
189	0xbdf81d9c	-0.121150225
190	0x3e3fd3b5	0.18733104
191	0xbd3415c7	-0.04396608
192	0x3e6057d3	0.21908502
193	0xbb70b0aa	-0.0036726394
194	0x3e3dc168	0.1853081
195	0x3ea19d66	0.31565398
196	0xbe2ef28b	-0.1708471
197	0x3ce93139	0.028465854
198	0x3c650a95	0.013979574
199	0xbda55a58	-0.08073872
200	0x3e50fdef	0.20409368
201	0x3c301817	0.010747931
202	0x3e373f5d	0.17895265
203	0x3ca5ba7e	0.020230528
204	0xbd8cd4f6	-0.068765566
205	0xbe20b006	-0.15692148
206	0x3d8fc221	0.07019449
207	0xbe799d60	-0.2437644
208	0x3ddf67bc	0.10908458
209	0x3d8ac208	0.0677529
210	0x3dfcef03	0.12350275
211	0xbcbc5811	-0.022991212
212	0xbd986254	-0.074406296
213	0x3db2e6d9	0.08735437
214	0x3e8a2add	0.26985827
215	0xbdd5763e	-0.104229435
216	0xbcbe7e21	-0.023253502
217	0x3db8dd4e	0.090265855
218	0x3ea083d0	0.31350565
219	0x3e046a6f	0.12931226
220	0xbd19af43	-0.03752066
221	0xbdb427a3	-0.087966226
222	0xbdff3267	-0.12460785
223	0x3e2021a0	0.15637827
224	0x3db5c6a6	0.0887578
225	0xbe1dbfd4	-0.15405208
226	0xbdb50ac8	-0.08839947
227	0xbe938e8a	-0.28819686
228	0xbe11ec30	-0.14250255
229	0xbe271dc2	-0.16319945
230	0x3dfe6aff	0.12422752
231	0x3db40a93	0.08791079
232	0xbe1a5b9a	-0.15074006
233	0x3e596a5b	0.21231978
234	0xbde48d5c	-0.11159775
235	0x3e1d3ed1	0.15355994
236	0x3e7fa9fc	0.24967188
237	0x3de9c5f9	0.114147134
238	0x3e132d3a	0.14372721
239	0x3e3f79af	0.18698762
240	0xbe27aab9	-0.1637372
241	0xbc0d168e	-0.0086113345
242	0xbe169cb2	-0.14708212
243	0xbe3fa887	-0.18716632
244	0x3e1b27bc	0.15151876
245	0x3d943a26	0.072376534
246	0xbe7fc7ed	-0.2497861
247	0x3bac4ca3	0.0052581592
248	0xbdd2a36a	-0.10285075
249	0xbe7be52b	-0.2459914
250	0xbe5a1f6a	-0.21301046
251	0x3c293141	0.010326684
252	0x3e947c6e	0.29001182
253	0x3d74a88a	0.059731044
254	0xbc6adfc2	-0.014335575
255	0xbcbf3bed	-0.023344005

conv2.bias f4 [256]
0	0xbdf02b23	-0.11726978
1	0x3cde5836	0.027141672
2	0x3d54d4d2	0.051960774
3	0xbb3e78eb	-0.0029063772
4	0xbc667f80	-0.014068484
5	0x3d3cba2d	0.04607599
6	0xbc9c7617	-0.019099278
7	0xbca252df	-0.019814907
8	0x3dd722df	0.10504698
9	0xbd153963	-0.03643168
10	0xbdba990e	-0.09111224
11	0x3dac73ac	0.084205
12	0xbb37dc99	-0.002805507
13	0xbec8f6b6	-0.39250726
14	0x3d8b0996	0.06788938
15	0x3d3a48f4	0.04547973
16	0x3d1ab718	0.037772268
17	0xbdd9346d	-0.106057025
18	0xbd096e18	-0.03355226
19	0xbe8f62be	-0.28005022
20	0xbb9f2d59	-0.004857701
21	0xbd2a8d77	-0.041638818
22	0x3ceb29e7	0.028706504
23	0xbcbef559	-0.02331035
24	0x3d2a9c67	0.041653063
25	0xbc22dae1	-0.00993988
26	0xbdbb4e37	-0.09145778
27	0xbca7cdf4	-0.020483948
28	0xbe278778	-0.16360271
29	0x3e1bd97a	0.1521968
30	0xbd05de64	-0.03268279
31	0xbd3083a1	-0.04309428
32	0xbda9775c	-0.08274719
33	0x3dda665d	0.106640555
34	0xbd39a318	-0.045321554
35	0xbe07dd81	-0.13268091
36	0xbcb197e7	-0.021678878
37	0xbc225698	-0.009908341
38	0xbc4ac85b	-0.01237687
39	0xbd5115cc	-0.051046178
40	0xbb00f7bb	-0.001967891
41	0xbc8576a2	-0.01629192
42	0x3d84d098	0.064850986
43	0xbcac4062	-0.021026794
44	0x3d884bdd	0.06655095
45	0x3dda2a78	0.106526315
46	0x3dd5c137	0.104372434
47	0xbcdb510e	-0.026772048
48	0x3ddee1f2	0.108829394
49	0xbd1e93c3	-0.038715135
50	0xbc26a4aa	-0.010171095
51	0x3d9172b3	0.07101955
52	0xbcc90f36	-0.024543386
53	0xbd7038f8	-0.05864808
54	0x3d463b02	0.048396118
55	0xbcd0f89e	-0.025509175
56	0x3d76edd7	0.060285416
57	0xbdd1d5fa	-0.10245891
58	0xbbe83a72	-0.0070870453
59	0xbdb76342	-0.08954479
60	0x3dd57bbd	0.10423992
61	0xbc89a34a	-0.016801495
62	0xbe92eab1	-0.2869468
63	0xbe5aab61	-0.21354438
64	0x3e90b62d	0.2826399
65	0xbd424f93	-0.04743917
66	0xbcc458fa	-0.023968209
67	0xbc21ba06	-0.009871012
68	0xbc08d21e	-0.008350877
69	0xbc95400e	-0.01821902
70	0x3d9a177f	0.07524013
71	0x3d721b10	0.05910784
72	0xbc49a137	-0.012306503
73	0xbd1bacce	-0.038006596
74	0xbc22c000	-0.009933472
75	0xbbd02746	-0.006352338
76	0xbcdfcc22	-0.027319018
77	0x3d886efd	0.06661794
78	0xbe08879e	-0.13332984
79	0x3dd29870	0.102829814
80	0x3ba3daa3	0.0050004288
81	0x3e1cdf68	0.15319598
82	0x3dd8e819	0.10591144
83	0xbe0b7283	-0.13617902
84	0x3ba20dae	0.0049454784
85	0xbe6bc1dd	-0.23023172
86	0xbd4c31c1	-0.049852137
87	0xbb67936c	-0.0035335673
88	0x3d93ddd6	0.07220046
89	0x3d400e22	0.046888478
90	0x3db19d08	0.086725295
91	0xbbb2a24f	-0.0054514776
92	0xbcf92309	-0.030412214
93	0xbd2454c7	-0.040119912
94	0x3d7208bd	0.059090365
95	0xbe1579c1	-0.14597227
96	0xbbb61440	-0.005556613
97	0x3d9befa3	0.076140665
98	0xbe19f528	-0.15034926
99	0x3dba2102	0.09088327
100	0x3d865ced	0.06560693
101	0xbc80aa47	-0.015706195
102	0x3d12217b	0.03567646
103	0xbd431505	-0.047627468
104	0xbca9da09	-0.02073385
105	0xbc5c29fa	-0.013437742
106	0xbd9ee12e	-0.07757793
107	0x3d53bc02	0.05169297
108	0xbcc2d68d	-0.023783946
109	0xbc9c8489	-0.019106166
110	0xbd676153	-0.0564893
111	0xbe2457cd	-0.16049118
112	0x3d9d6931	0.07686079
113	0x3bdc47b5	0.0067224153
114	0x3d180227	0.037111428
115	0xbdd38bc7	-0.10329395
116	0x3e6a9d49	0.22911562
117	0x3e1cb997	0.15305172
118	0xbc34974d	-0.011022401
119	0x3d877144	0.066134006
120	0x3e19221f	0.14954422
121	0xbd4f97be	-0.050681822
122	0xbd273b70	-0.04082817
123	0xbe0fc0a3	-0.14038329
124	0xbc007aa3	-0.007841739
125	0x3e32d9ae	0.1746585
126	0x3d786b27	0.060649063
127	0x3d7da9c4	0.06192948
128	0xbb6fc204	-0.0036584148
129	0xbc8de170	-0.017319411
130	0xbc8c1870	-0.017101496
131	0x3dc594a7	0.09647494
132	0x3d952e54	0.07284227
133	0x3d9331cf	0.071872346
134	0xbc81eeab	-0.015860876
135	0xbe2c16a5	-0.16805513
136	0xbc6c0cd4	-0.014407355
137	0xbdce7b93	-0.10082164
138	0xbc3ab266	-0.011395073
139	0xbc5d439e	-0.013504891
140	0xbd90b431	-0.07065619
141	0xbcdc498c	-0.026890539
142	0xbd1c977b	-0.0382304
143	0xbe4b8cae	-0.19877884
144	0xbc8b94d0	-0.017038733
145	0x3cce4312	0.025178466
146	0x3e6ea765	0.23306043
147	0xbe648723	-0.22317176
148	0xbabcb364	-0.0014396724
149	0xbc8a6b89	-0.01689698
150	0xbe6afa18	-0.22946966
151	0xbcf2408f	-0.0295718
152	0xbad56e00	-0.0016283393
153	0xbc86c50d	-0.016451383
154	0xbd73c5bc	-0.059514746
155	0x3b54d901	0.0032477977
156	0xbd3ebba5	-0.04656567
157	0x3d1811ea	0.03712646
158	0xbdd1c9b1	-0.10243548
159	0x3dc4778f	0.095931165
160	0x3dc88d5e	0.09792589
161	0x3e0212fb	0.12702553
162	0x3d41c8fd	0.047310818
163	0x3c845166	0.016152095
164	0xbde56f80	-0.112029076
165	0xbc59e4a7	-0.013299144
166	0x3ccbfa0f	0.02489951
167	0xbce61302	-0.028085236
168	0xbc1115f8	-0.008855335
169	0xbcd63d37	-0.026152236
170	0x3d3d4292	0.046206065
171	0xbc5bcb7f	-0.0134152165
172	0xbe863e9e	-0.26219648
173	0xbb980720	-0.0046395212
174	0xbdcac8e4	-0.09901598
175	0xbd1b922e	-0.037981205
176	0xbca3e724	-0.020007677
177	0xbbf6abd5	-0.007527808
178	0xbc3f838a	-0.011689076
179	0xbd9c7639	-0.07639737
180	0x3c17801e	0.009246854
181	0x3e07dcc4	0.13267809
182	0xbd05f7ee	-0.032707147
183	0xbda8f741	-0.08250285
184	0xbec8c6ba	-0.39214116
185	0xbc3f1de9	-0.011664846
186	0x3d845806	0.06462102
187	0x3cb50ebd	0.022101754
188	0xbc856746	-0.016284596
189	0xbb3ae501	-0.0028517845
190	0xbc950137	-0.018189056
191	0xbc765259	-0.015034282
192	0xbafd3988	-0.0019319514
193	0xbbc126ae	-0.0058945036
194	0xbcb09582	-0.021555666
195	0xbd445598	-0.04793319
196	0xbe046fa8	-0.12933218
197	0xbd80bcfd	-0.06286047
198	0x3d630a8d	0.055429984
199	0xbca6e3c7	-0.020372285
200	0xbd383bc6	-0.04497888
201	0x3c86cf59	0.016456293
202	0xbc97bc25	-0.018522331
203	0xbe47b954	-0.19504291
204	0xbb5d5168	-0.0033770446
205	0xbd96d902	-0.0736561
206	0x3d0c2320	0.034213185
207	0xbc3d25d1	-0.011544661
208	0xbd7e8c7a	-0.062145688
209	0xbe0589b3	-0.1304081
210	0x3d8aad72	0.06771363
211	0xbd8ec24c	-0.06970653
212	0xbe9fb286	-0.3119089
213	0xbcb986e0	-0.022647321
214	0x3df29fd1	0.11846889
215	0x3c012c74	0.007884134
216	0x3c7b9b0c	0.01535679
217	0xbb6b85ca	-0.0035937899
218	0xbca4929e	-0.020089444
219	0xbcaf9910	-0.02143529
220	0xbd1e0045	-0.038574476
221	0xbc1ce982	-0.009577157
222	0xbca3c6ee	-0.019992318
223	0x3d9120b6	0.07086317
224	0xbe110ed1	-0.14165808
225	0xbde71638	-0.11283535
226	0xbd11be16	-0.03558167
227	0xbe10d4f5	-0.14143737
228	0x3e256a12	0.16153744
229	0x3d28e40c	0.041233107
230	0x3cd6209a	0.026138593
231	0xbd628ae7	-0.05530825
232	0x3e1b1f4c	0.15148658
233	0xbc876980	-0.016529799
234	0xbc9fe247	-0.019517077
235	0xbbe67ddc	-0.0070340466
236	0x3d3f6faa	0.04673735
237	0xbcb20810	-0.02173236
238	0xbc6fc2d9	-0.014633858
239	0xbc1862e4	-0.009300921
240	0x3de2738e	0.110571966
241	0x3e0a68ea	0.13516584
242	0x3e279934	0.16367036
243	0xbcb9f3a1	-0.02269918
244	0xbda4bb05	-0.08043484
245	0xbd92ec56	-0.07173984
246	0xbdbc3f58	-0.09191769
247	0x3dc1fdc7	0.09472232
248	0xbd97d30f	-0.07413303
249	0xbe7c6f8c	-0.24651927
250	0xbdb55e53	-0.088558815
251	0xbe728724	-0.23684365
252	0xbcb66e96	-0.022269528
253	0x3b8d95e2	0.004320846
254	0xbe1876ab	-0.14889018
255	0x3d49205e	0.049103133
